<?xml version="1.0" ?>
<net batch="1" name="semanticsegmentation_ICNet" version="3">
	<layers>
		<layer id="0" name="input" precision="FP32" type="Input">
			<output>
				<port id="0">
					<dim>256</dim>
					<dim>512</dim>
					<dim>3</dim>
				</port>
			</output>
		</layer>
		<layer id="1" name="sub/add_" precision="FP32" type="Power">
			<data power="1" scale="1" shift="0.0"/>
			<input>
				<port id="0">
					<dim>256</dim>
					<dim>512</dim>
					<dim>3</dim>
				</port>
			</input>
			<output>
				<port id="1">
					<dim>256</dim>
					<dim>512</dim>
					<dim>3</dim>
				</port>
			</output>
		</layer>
		<layer id="2" name="ExpandDims" precision="FP32" type="Reshape">
			<data axis="0" dim="1,3,256,512" num_axes="-1"/>
			<input>
				<port id="0">
					<dim>256</dim>
					<dim>512</dim>
					<dim>3</dim>
				</port>
			</input>
			<output>
				<port id="1">
					<dim>1</dim>
					<dim>3</dim>
					<dim>256</dim>
					<dim>512</dim>
				</port>
			</output>
		</layer>
		<layer id="3" name="data_sub2" precision="FP32" type="Interp">
			<data align_corners="1" factor="0.5" pad_beg="0" pad_end="0"/>
			<input>
				<port id="0">
					<dim>1</dim>
					<dim>3</dim>
					<dim>256</dim>
					<dim>512</dim>
				</port>
			</input>
			<output>
				<port id="1">
					<dim>1</dim>
					<dim>3</dim>
					<dim>128</dim>
					<dim>256</dim>
				</port>
			</output>
		</layer>
		<layer id="4" name="conv1_1_3x3_s2/Conv2D" precision="FP32" type="Convolution">
			<data auto_pad="same_upper" dilations="1,1" group="1" kernel="3,3" output="32" pads_begin="0,0" pads_end="1,1" strides="2,2"/>
			<input>
				<port id="0">
					<dim>1</dim>
					<dim>3</dim>
					<dim>128</dim>
					<dim>256</dim>
				</port>
			</input>
			<output>
				<port id="3">
					<dim>1</dim>
					<dim>32</dim>
					<dim>64</dim>
					<dim>128</dim>
				</port>
			</output>
			<blobs>
				<weights offset="0" size="3456"/>
				<biases offset="3456" size="128"/>
			</blobs>
		</layer>
		<layer id="5" name="conv1_1_3x3_s2/conv1_1_3x3_s2" precision="FP32" type="ReLU">
			<input>
				<port id="0">
					<dim>1</dim>
					<dim>32</dim>
					<dim>64</dim>
					<dim>128</dim>
				</port>
			</input>
			<output>
				<port id="1">
					<dim>1</dim>
					<dim>32</dim>
					<dim>64</dim>
					<dim>128</dim>
				</port>
			</output>
		</layer>
		<layer id="6" name="conv1_2_3x3/Conv2D" precision="FP32" type="Convolution">
			<data auto_pad="same_upper" dilations="1,1" group="1" kernel="3,3" output="32" pads_begin="1,1" pads_end="1,1" strides="1,1"/>
			<input>
				<port id="0">
					<dim>1</dim>
					<dim>32</dim>
					<dim>64</dim>
					<dim>128</dim>
				</port>
			</input>
			<output>
				<port id="3">
					<dim>1</dim>
					<dim>32</dim>
					<dim>64</dim>
					<dim>128</dim>
				</port>
			</output>
			<blobs>
				<weights offset="3584" size="36864"/>
				<biases offset="40448" size="128"/>
			</blobs>
		</layer>
		<layer id="7" name="conv1_2_3x3/conv1_2_3x3" precision="FP32" type="ReLU">
			<input>
				<port id="0">
					<dim>1</dim>
					<dim>32</dim>
					<dim>64</dim>
					<dim>128</dim>
				</port>
			</input>
			<output>
				<port id="1">
					<dim>1</dim>
					<dim>32</dim>
					<dim>64</dim>
					<dim>128</dim>
				</port>
			</output>
		</layer>
		<layer id="8" name="conv1_3_3x3/Conv2D" precision="FP32" type="Convolution">
			<data auto_pad="same_upper" dilations="1,1" group="1" kernel="3,3" output="64" pads_begin="1,1" pads_end="1,1" strides="1,1"/>
			<input>
				<port id="0">
					<dim>1</dim>
					<dim>32</dim>
					<dim>64</dim>
					<dim>128</dim>
				</port>
			</input>
			<output>
				<port id="3">
					<dim>1</dim>
					<dim>64</dim>
					<dim>64</dim>
					<dim>128</dim>
				</port>
			</output>
			<blobs>
				<weights offset="40576" size="73728"/>
				<biases offset="114304" size="256"/>
			</blobs>
		</layer>
		<layer id="9" name="conv1_3_3x3/conv1_3_3x3" precision="FP32" type="ReLU">
			<input>
				<port id="0">
					<dim>1</dim>
					<dim>64</dim>
					<dim>64</dim>
					<dim>128</dim>
				</port>
			</input>
			<output>
				<port id="1">
					<dim>1</dim>
					<dim>64</dim>
					<dim>64</dim>
					<dim>128</dim>
				</port>
			</output>
		</layer>
		<layer id="10" name="pool1_3x3_s2" precision="FP32" type="Pooling">
			<data exclude-pad="true" kernel="3,3" pads_begin="1,1" pads_end="1,1" pool-method="max" strides="2,2"/>
			<input>
				<port id="0">
					<dim>1</dim>
					<dim>64</dim>
					<dim>64</dim>
					<dim>128</dim>
				</port>
			</input>
			<output>
				<port id="1">
					<dim>1</dim>
					<dim>64</dim>
					<dim>32</dim>
					<dim>64</dim>
				</port>
			</output>
		</layer>
		<layer id="11" name="conv2_1_1x1_proj/Conv2D" precision="FP32" type="Convolution">
			<data auto_pad="valid" dilations="1,1" group="1" kernel="1,1" output="128" pads_begin="0,0" pads_end="0,0" strides="1,1"/>
			<input>
				<port id="0">
					<dim>1</dim>
					<dim>64</dim>
					<dim>32</dim>
					<dim>64</dim>
				</port>
			</input>
			<output>
				<port id="3">
					<dim>1</dim>
					<dim>128</dim>
					<dim>32</dim>
					<dim>64</dim>
				</port>
			</output>
			<blobs>
				<weights offset="114560" size="32768"/>
				<biases offset="147328" size="512"/>
			</blobs>
		</layer>
		<layer id="12" name="ResizeBilinear" precision="FP32" type="Interp">
			<data align_corners="0" factor="1.0" pad_beg="0" pad_end="0"/>
			<input>
				<port id="0">
					<dim>1</dim>
					<dim>128</dim>
					<dim>32</dim>
					<dim>64</dim>
				</port>
			</input>
			<output>
				<port id="1">
					<dim>1</dim>
					<dim>128</dim>
					<dim>32</dim>
					<dim>64</dim>
				</port>
			</output>
		</layer>
		<layer id="13" name="conv2_1_1x1_reduce/Conv2D" precision="FP32" type="Convolution">
			<data auto_pad="valid" dilations="1,1" group="1" kernel="1,1" output="32" pads_begin="0,0" pads_end="0,0" strides="1,1"/>
			<input>
				<port id="0">
					<dim>1</dim>
					<dim>64</dim>
					<dim>32</dim>
					<dim>64</dim>
				</port>
			</input>
			<output>
				<port id="3">
					<dim>1</dim>
					<dim>32</dim>
					<dim>32</dim>
					<dim>64</dim>
				</port>
			</output>
			<blobs>
				<weights offset="147840" size="8192"/>
				<biases offset="156032" size="128"/>
			</blobs>
		</layer>
		<layer id="14" name="conv2_1_1x1_reduce/conv2_1_1x1_reduce" precision="FP32" type="ReLU">
			<input>
				<port id="0">
					<dim>1</dim>
					<dim>32</dim>
					<dim>32</dim>
					<dim>64</dim>
				</port>
			</input>
			<output>
				<port id="1">
					<dim>1</dim>
					<dim>32</dim>
					<dim>32</dim>
					<dim>64</dim>
				</port>
			</output>
		</layer>
		<layer id="15" name="conv2_1_3x3/Conv2D" precision="FP32" type="Convolution">
			<data dilations="1,1" group="1" kernel="3,3" output="32" pads_begin="1,1" pads_end="1,1" strides="1,1"/>
			<input>
				<port id="0">
					<dim>1</dim>
					<dim>32</dim>
					<dim>32</dim>
					<dim>64</dim>
				</port>
			</input>
			<output>
				<port id="3">
					<dim>1</dim>
					<dim>32</dim>
					<dim>32</dim>
					<dim>64</dim>
				</port>
			</output>
			<blobs>
				<weights offset="156160" size="36864"/>
				<biases offset="193024" size="128"/>
			</blobs>
		</layer>
		<layer id="16" name="conv2_1_3x3/conv2_1_3x3" precision="FP32" type="ReLU">
			<input>
				<port id="0">
					<dim>1</dim>
					<dim>32</dim>
					<dim>32</dim>
					<dim>64</dim>
				</port>
			</input>
			<output>
				<port id="1">
					<dim>1</dim>
					<dim>32</dim>
					<dim>32</dim>
					<dim>64</dim>
				</port>
			</output>
		</layer>
		<layer id="17" name="conv2_1_1x1_increase/Conv2D" precision="FP32" type="Convolution">
			<data auto_pad="valid" dilations="1,1" group="1" kernel="1,1" output="128" pads_begin="0,0" pads_end="0,0" strides="1,1"/>
			<input>
				<port id="0">
					<dim>1</dim>
					<dim>32</dim>
					<dim>32</dim>
					<dim>64</dim>
				</port>
			</input>
			<output>
				<port id="3">
					<dim>1</dim>
					<dim>128</dim>
					<dim>32</dim>
					<dim>64</dim>
				</port>
			</output>
			<blobs>
				<weights offset="193152" size="16384"/>
				<biases offset="209536" size="512"/>
			</blobs>
		</layer>
		<layer id="18" name="conv2_1/sum_1" precision="FP32" type="Eltwise">
			<data operation="sum"/>
			<input>
				<port id="0">
					<dim>1</dim>
					<dim>128</dim>
					<dim>32</dim>
					<dim>64</dim>
				</port>
				<port id="1">
					<dim>1</dim>
					<dim>128</dim>
					<dim>32</dim>
					<dim>64</dim>
				</port>
			</input>
			<output>
				<port id="2">
					<dim>1</dim>
					<dim>128</dim>
					<dim>32</dim>
					<dim>64</dim>
				</port>
			</output>
		</layer>
		<layer id="19" name="conv2_1/relu" precision="FP32" type="ReLU">
			<input>
				<port id="0">
					<dim>1</dim>
					<dim>128</dim>
					<dim>32</dim>
					<dim>64</dim>
				</port>
			</input>
			<output>
				<port id="1">
					<dim>1</dim>
					<dim>128</dim>
					<dim>32</dim>
					<dim>64</dim>
				</port>
			</output>
		</layer>
		<layer id="20" name="ResizeBilinear_1" precision="FP32" type="Interp">
			<data align_corners="0" factor="1.0" pad_beg="0" pad_end="0"/>
			<input>
				<port id="0">
					<dim>1</dim>
					<dim>128</dim>
					<dim>32</dim>
					<dim>64</dim>
				</port>
			</input>
			<output>
				<port id="1">
					<dim>1</dim>
					<dim>128</dim>
					<dim>32</dim>
					<dim>64</dim>
				</port>
			</output>
		</layer>
		<layer id="21" name="conv2_2_1x1_reduce/Conv2D" precision="FP32" type="Convolution">
			<data auto_pad="valid" dilations="1,1" group="1" kernel="1,1" output="32" pads_begin="0,0" pads_end="0,0" strides="1,1"/>
			<input>
				<port id="0">
					<dim>1</dim>
					<dim>128</dim>
					<dim>32</dim>
					<dim>64</dim>
				</port>
			</input>
			<output>
				<port id="3">
					<dim>1</dim>
					<dim>32</dim>
					<dim>32</dim>
					<dim>64</dim>
				</port>
			</output>
			<blobs>
				<weights offset="210048" size="16384"/>
				<biases offset="226432" size="128"/>
			</blobs>
		</layer>
		<layer id="22" name="conv2_2_1x1_reduce/conv2_2_1x1_reduce" precision="FP32" type="ReLU">
			<input>
				<port id="0">
					<dim>1</dim>
					<dim>32</dim>
					<dim>32</dim>
					<dim>64</dim>
				</port>
			</input>
			<output>
				<port id="1">
					<dim>1</dim>
					<dim>32</dim>
					<dim>32</dim>
					<dim>64</dim>
				</port>
			</output>
		</layer>
		<layer id="23" name="conv2_2_3x3/Conv2D" precision="FP32" type="Convolution">
			<data dilations="1,1" group="1" kernel="3,3" output="32" pads_begin="1,1" pads_end="1,1" strides="1,1"/>
			<input>
				<port id="0">
					<dim>1</dim>
					<dim>32</dim>
					<dim>32</dim>
					<dim>64</dim>
				</port>
			</input>
			<output>
				<port id="3">
					<dim>1</dim>
					<dim>32</dim>
					<dim>32</dim>
					<dim>64</dim>
				</port>
			</output>
			<blobs>
				<weights offset="226560" size="36864"/>
				<biases offset="263424" size="128"/>
			</blobs>
		</layer>
		<layer id="24" name="conv2_2_3x3/conv2_2_3x3" precision="FP32" type="ReLU">
			<input>
				<port id="0">
					<dim>1</dim>
					<dim>32</dim>
					<dim>32</dim>
					<dim>64</dim>
				</port>
			</input>
			<output>
				<port id="1">
					<dim>1</dim>
					<dim>32</dim>
					<dim>32</dim>
					<dim>64</dim>
				</port>
			</output>
		</layer>
		<layer id="25" name="conv2_2_1x1_increase/Conv2D" precision="FP32" type="Convolution">
			<data auto_pad="valid" dilations="1,1" group="1" kernel="1,1" output="128" pads_begin="0,0" pads_end="0,0" strides="1,1"/>
			<input>
				<port id="0">
					<dim>1</dim>
					<dim>32</dim>
					<dim>32</dim>
					<dim>64</dim>
				</port>
			</input>
			<output>
				<port id="3">
					<dim>1</dim>
					<dim>128</dim>
					<dim>32</dim>
					<dim>64</dim>
				</port>
			</output>
			<blobs>
				<weights offset="263552" size="16384"/>
				<biases offset="279936" size="512"/>
			</blobs>
		</layer>
		<layer id="26" name="conv2_2/sum_1" precision="FP32" type="Eltwise">
			<data operation="sum"/>
			<input>
				<port id="0">
					<dim>1</dim>
					<dim>128</dim>
					<dim>32</dim>
					<dim>64</dim>
				</port>
				<port id="1">
					<dim>1</dim>
					<dim>128</dim>
					<dim>32</dim>
					<dim>64</dim>
				</port>
			</input>
			<output>
				<port id="2">
					<dim>1</dim>
					<dim>128</dim>
					<dim>32</dim>
					<dim>64</dim>
				</port>
			</output>
		</layer>
		<layer id="27" name="conv2_2/relu" precision="FP32" type="ReLU">
			<input>
				<port id="0">
					<dim>1</dim>
					<dim>128</dim>
					<dim>32</dim>
					<dim>64</dim>
				</port>
			</input>
			<output>
				<port id="1">
					<dim>1</dim>
					<dim>128</dim>
					<dim>32</dim>
					<dim>64</dim>
				</port>
			</output>
		</layer>
		<layer id="28" name="ResizeBilinear_2" precision="FP32" type="Interp">
			<data align_corners="0" factor="1.0" pad_beg="0" pad_end="0"/>
			<input>
				<port id="0">
					<dim>1</dim>
					<dim>128</dim>
					<dim>32</dim>
					<dim>64</dim>
				</port>
			</input>
			<output>
				<port id="1">
					<dim>1</dim>
					<dim>128</dim>
					<dim>32</dim>
					<dim>64</dim>
				</port>
			</output>
		</layer>
		<layer id="29" name="conv2_3_1x1_reduce/Conv2D" precision="FP32" type="Convolution">
			<data auto_pad="valid" dilations="1,1" group="1" kernel="1,1" output="32" pads_begin="0,0" pads_end="0,0" strides="1,1"/>
			<input>
				<port id="0">
					<dim>1</dim>
					<dim>128</dim>
					<dim>32</dim>
					<dim>64</dim>
				</port>
			</input>
			<output>
				<port id="3">
					<dim>1</dim>
					<dim>32</dim>
					<dim>32</dim>
					<dim>64</dim>
				</port>
			</output>
			<blobs>
				<weights offset="280448" size="16384"/>
				<biases offset="296832" size="128"/>
			</blobs>
		</layer>
		<layer id="30" name="conv2_3_1x1_reduce/conv2_3_1x1_reduce" precision="FP32" type="ReLU">
			<input>
				<port id="0">
					<dim>1</dim>
					<dim>32</dim>
					<dim>32</dim>
					<dim>64</dim>
				</port>
			</input>
			<output>
				<port id="1">
					<dim>1</dim>
					<dim>32</dim>
					<dim>32</dim>
					<dim>64</dim>
				</port>
			</output>
		</layer>
		<layer id="31" name="conv2_3_3x3/Conv2D" precision="FP32" type="Convolution">
			<data dilations="1,1" group="1" kernel="3,3" output="32" pads_begin="1,1" pads_end="1,1" strides="1,1"/>
			<input>
				<port id="0">
					<dim>1</dim>
					<dim>32</dim>
					<dim>32</dim>
					<dim>64</dim>
				</port>
			</input>
			<output>
				<port id="3">
					<dim>1</dim>
					<dim>32</dim>
					<dim>32</dim>
					<dim>64</dim>
				</port>
			</output>
			<blobs>
				<weights offset="296960" size="36864"/>
				<biases offset="333824" size="128"/>
			</blobs>
		</layer>
		<layer id="32" name="conv2_3_3x3/conv2_3_3x3" precision="FP32" type="ReLU">
			<input>
				<port id="0">
					<dim>1</dim>
					<dim>32</dim>
					<dim>32</dim>
					<dim>64</dim>
				</port>
			</input>
			<output>
				<port id="1">
					<dim>1</dim>
					<dim>32</dim>
					<dim>32</dim>
					<dim>64</dim>
				</port>
			</output>
		</layer>
		<layer id="33" name="conv2_3_1x1_increase/Conv2D" precision="FP32" type="Convolution">
			<data auto_pad="valid" dilations="1,1" group="1" kernel="1,1" output="128" pads_begin="0,0" pads_end="0,0" strides="1,1"/>
			<input>
				<port id="0">
					<dim>1</dim>
					<dim>32</dim>
					<dim>32</dim>
					<dim>64</dim>
				</port>
			</input>
			<output>
				<port id="3">
					<dim>1</dim>
					<dim>128</dim>
					<dim>32</dim>
					<dim>64</dim>
				</port>
			</output>
			<blobs>
				<weights offset="333952" size="16384"/>
				<biases offset="350336" size="512"/>
			</blobs>
		</layer>
		<layer id="34" name="conv2_3/sum_1" precision="FP32" type="Eltwise">
			<data operation="sum"/>
			<input>
				<port id="0">
					<dim>1</dim>
					<dim>128</dim>
					<dim>32</dim>
					<dim>64</dim>
				</port>
				<port id="1">
					<dim>1</dim>
					<dim>128</dim>
					<dim>32</dim>
					<dim>64</dim>
				</port>
			</input>
			<output>
				<port id="2">
					<dim>1</dim>
					<dim>128</dim>
					<dim>32</dim>
					<dim>64</dim>
				</port>
			</output>
		</layer>
		<layer id="35" name="conv2_3/relu" precision="FP32" type="ReLU">
			<input>
				<port id="0">
					<dim>1</dim>
					<dim>128</dim>
					<dim>32</dim>
					<dim>64</dim>
				</port>
			</input>
			<output>
				<port id="1">
					<dim>1</dim>
					<dim>128</dim>
					<dim>32</dim>
					<dim>64</dim>
				</port>
			</output>
		</layer>
		<layer id="36" name="conv3_1_1x1_proj/Conv2D" precision="FP32" type="Convolution">
			<data auto_pad="valid" dilations="1,1" group="1" kernel="1,1" output="256" pads_begin="0,0" pads_end="0,0" strides="2,2"/>
			<input>
				<port id="0">
					<dim>1</dim>
					<dim>128</dim>
					<dim>32</dim>
					<dim>64</dim>
				</port>
			</input>
			<output>
				<port id="3">
					<dim>1</dim>
					<dim>256</dim>
					<dim>16</dim>
					<dim>32</dim>
				</port>
			</output>
			<blobs>
				<weights offset="350848" size="131072"/>
				<biases offset="481920" size="1024"/>
			</blobs>
		</layer>
		<layer id="37" name="ResizeBilinear_3" precision="FP32" type="Interp">
			<data align_corners="0" factor="1.0" pad_beg="0" pad_end="0"/>
			<input>
				<port id="0">
					<dim>1</dim>
					<dim>256</dim>
					<dim>16</dim>
					<dim>32</dim>
				</port>
			</input>
			<output>
				<port id="1">
					<dim>1</dim>
					<dim>256</dim>
					<dim>16</dim>
					<dim>32</dim>
				</port>
			</output>
		</layer>
		<layer id="38" name="conv3_1_1x1_reduce/Conv2D" precision="FP32" type="Convolution">
			<data auto_pad="valid" dilations="1,1" group="1" kernel="1,1" output="64" pads_begin="0,0" pads_end="0,0" strides="2,2"/>
			<input>
				<port id="0">
					<dim>1</dim>
					<dim>128</dim>
					<dim>32</dim>
					<dim>64</dim>
				</port>
			</input>
			<output>
				<port id="3">
					<dim>1</dim>
					<dim>64</dim>
					<dim>16</dim>
					<dim>32</dim>
				</port>
			</output>
			<blobs>
				<weights offset="482944" size="32768"/>
				<biases offset="515712" size="256"/>
			</blobs>
		</layer>
		<layer id="39" name="conv3_1_1x1_reduce/conv3_1_1x1_reduce" precision="FP32" type="ReLU">
			<input>
				<port id="0">
					<dim>1</dim>
					<dim>64</dim>
					<dim>16</dim>
					<dim>32</dim>
				</port>
			</input>
			<output>
				<port id="1">
					<dim>1</dim>
					<dim>64</dim>
					<dim>16</dim>
					<dim>32</dim>
				</port>
			</output>
		</layer>
		<layer id="40" name="conv3_1_3x3/Conv2D" precision="FP32" type="Convolution">
			<data dilations="1,1" group="1" kernel="3,3" output="64" pads_begin="1,1" pads_end="1,1" strides="1,1"/>
			<input>
				<port id="0">
					<dim>1</dim>
					<dim>64</dim>
					<dim>16</dim>
					<dim>32</dim>
				</port>
			</input>
			<output>
				<port id="3">
					<dim>1</dim>
					<dim>64</dim>
					<dim>16</dim>
					<dim>32</dim>
				</port>
			</output>
			<blobs>
				<weights offset="515968" size="147456"/>
				<biases offset="663424" size="256"/>
			</blobs>
		</layer>
		<layer id="41" name="conv3_1_3x3/conv3_1_3x3" precision="FP32" type="ReLU">
			<input>
				<port id="0">
					<dim>1</dim>
					<dim>64</dim>
					<dim>16</dim>
					<dim>32</dim>
				</port>
			</input>
			<output>
				<port id="1">
					<dim>1</dim>
					<dim>64</dim>
					<dim>16</dim>
					<dim>32</dim>
				</port>
			</output>
		</layer>
		<layer id="42" name="conv3_1_1x1_increase/Conv2D" precision="FP32" type="Convolution">
			<data auto_pad="valid" dilations="1,1" group="1" kernel="1,1" output="256" pads_begin="0,0" pads_end="0,0" strides="1,1"/>
			<input>
				<port id="0">
					<dim>1</dim>
					<dim>64</dim>
					<dim>16</dim>
					<dim>32</dim>
				</port>
			</input>
			<output>
				<port id="3">
					<dim>1</dim>
					<dim>256</dim>
					<dim>16</dim>
					<dim>32</dim>
				</port>
			</output>
			<blobs>
				<weights offset="663680" size="65536"/>
				<biases offset="729216" size="1024"/>
			</blobs>
		</layer>
		<layer id="43" name="conv3_1/sum_1" precision="FP32" type="Eltwise">
			<data operation="sum"/>
			<input>
				<port id="0">
					<dim>1</dim>
					<dim>256</dim>
					<dim>16</dim>
					<dim>32</dim>
				</port>
				<port id="1">
					<dim>1</dim>
					<dim>256</dim>
					<dim>16</dim>
					<dim>32</dim>
				</port>
			</input>
			<output>
				<port id="2">
					<dim>1</dim>
					<dim>256</dim>
					<dim>16</dim>
					<dim>32</dim>
				</port>
			</output>
		</layer>
		<layer id="44" name="conv3_1/relu" precision="FP32" type="ReLU">
			<input>
				<port id="0">
					<dim>1</dim>
					<dim>256</dim>
					<dim>16</dim>
					<dim>32</dim>
				</port>
			</input>
			<output>
				<port id="1">
					<dim>1</dim>
					<dim>256</dim>
					<dim>16</dim>
					<dim>32</dim>
				</port>
			</output>
		</layer>
		<layer id="45" name="conv3_1_sub4" precision="FP32" type="Interp">
			<data align_corners="1" factor="0.5" pad_beg="0" pad_end="0"/>
			<input>
				<port id="0">
					<dim>1</dim>
					<dim>256</dim>
					<dim>16</dim>
					<dim>32</dim>
				</port>
			</input>
			<output>
				<port id="1">
					<dim>1</dim>
					<dim>256</dim>
					<dim>8</dim>
					<dim>16</dim>
				</port>
			</output>
		</layer>
		<layer id="46" name="ResizeBilinear_4" precision="FP32" type="Interp">
			<data align_corners="0" factor="1.0" pad_beg="0" pad_end="0"/>
			<input>
				<port id="0">
					<dim>1</dim>
					<dim>256</dim>
					<dim>8</dim>
					<dim>16</dim>
				</port>
			</input>
			<output>
				<port id="1">
					<dim>1</dim>
					<dim>256</dim>
					<dim>8</dim>
					<dim>16</dim>
				</port>
			</output>
		</layer>
		<layer id="47" name="conv3_2_1x1_reduce/Conv2D" precision="FP32" type="Convolution">
			<data auto_pad="valid" dilations="1,1" group="1" kernel="1,1" output="64" pads_begin="0,0" pads_end="0,0" strides="1,1"/>
			<input>
				<port id="0">
					<dim>1</dim>
					<dim>256</dim>
					<dim>8</dim>
					<dim>16</dim>
				</port>
			</input>
			<output>
				<port id="3">
					<dim>1</dim>
					<dim>64</dim>
					<dim>8</dim>
					<dim>16</dim>
				</port>
			</output>
			<blobs>
				<weights offset="730240" size="65536"/>
				<biases offset="795776" size="256"/>
			</blobs>
		</layer>
		<layer id="48" name="conv3_2_1x1_reduce/conv3_2_1x1_reduce" precision="FP32" type="ReLU">
			<input>
				<port id="0">
					<dim>1</dim>
					<dim>64</dim>
					<dim>8</dim>
					<dim>16</dim>
				</port>
			</input>
			<output>
				<port id="1">
					<dim>1</dim>
					<dim>64</dim>
					<dim>8</dim>
					<dim>16</dim>
				</port>
			</output>
		</layer>
		<layer id="49" name="conv3_2_3x3/Conv2D" precision="FP32" type="Convolution">
			<data dilations="1,1" group="1" kernel="3,3" output="64" pads_begin="1,1" pads_end="1,1" strides="1,1"/>
			<input>
				<port id="0">
					<dim>1</dim>
					<dim>64</dim>
					<dim>8</dim>
					<dim>16</dim>
				</port>
			</input>
			<output>
				<port id="3">
					<dim>1</dim>
					<dim>64</dim>
					<dim>8</dim>
					<dim>16</dim>
				</port>
			</output>
			<blobs>
				<weights offset="796032" size="147456"/>
				<biases offset="943488" size="256"/>
			</blobs>
		</layer>
		<layer id="50" name="conv3_2_3x3/conv3_2_3x3" precision="FP32" type="ReLU">
			<input>
				<port id="0">
					<dim>1</dim>
					<dim>64</dim>
					<dim>8</dim>
					<dim>16</dim>
				</port>
			</input>
			<output>
				<port id="1">
					<dim>1</dim>
					<dim>64</dim>
					<dim>8</dim>
					<dim>16</dim>
				</port>
			</output>
		</layer>
		<layer id="51" name="conv3_2_1x1_increase/Conv2D" precision="FP32" type="Convolution">
			<data auto_pad="valid" dilations="1,1" group="1" kernel="1,1" output="256" pads_begin="0,0" pads_end="0,0" strides="1,1"/>
			<input>
				<port id="0">
					<dim>1</dim>
					<dim>64</dim>
					<dim>8</dim>
					<dim>16</dim>
				</port>
			</input>
			<output>
				<port id="3">
					<dim>1</dim>
					<dim>256</dim>
					<dim>8</dim>
					<dim>16</dim>
				</port>
			</output>
			<blobs>
				<weights offset="943744" size="65536"/>
				<biases offset="1009280" size="1024"/>
			</blobs>
		</layer>
		<layer id="52" name="conv3_2/sum_1" precision="FP32" type="Eltwise">
			<data operation="sum"/>
			<input>
				<port id="0">
					<dim>1</dim>
					<dim>256</dim>
					<dim>8</dim>
					<dim>16</dim>
				</port>
				<port id="1">
					<dim>1</dim>
					<dim>256</dim>
					<dim>8</dim>
					<dim>16</dim>
				</port>
			</input>
			<output>
				<port id="2">
					<dim>1</dim>
					<dim>256</dim>
					<dim>8</dim>
					<dim>16</dim>
				</port>
			</output>
		</layer>
		<layer id="53" name="conv3_2/relu" precision="FP32" type="ReLU">
			<input>
				<port id="0">
					<dim>1</dim>
					<dim>256</dim>
					<dim>8</dim>
					<dim>16</dim>
				</port>
			</input>
			<output>
				<port id="1">
					<dim>1</dim>
					<dim>256</dim>
					<dim>8</dim>
					<dim>16</dim>
				</port>
			</output>
		</layer>
		<layer id="54" name="ResizeBilinear_5" precision="FP32" type="Interp">
			<data align_corners="0" factor="1.0" pad_beg="0" pad_end="0"/>
			<input>
				<port id="0">
					<dim>1</dim>
					<dim>256</dim>
					<dim>8</dim>
					<dim>16</dim>
				</port>
			</input>
			<output>
				<port id="1">
					<dim>1</dim>
					<dim>256</dim>
					<dim>8</dim>
					<dim>16</dim>
				</port>
			</output>
		</layer>
		<layer id="55" name="conv3_3_1x1_reduce/Conv2D" precision="FP32" type="Convolution">
			<data auto_pad="valid" dilations="1,1" group="1" kernel="1,1" output="64" pads_begin="0,0" pads_end="0,0" strides="1,1"/>
			<input>
				<port id="0">
					<dim>1</dim>
					<dim>256</dim>
					<dim>8</dim>
					<dim>16</dim>
				</port>
			</input>
			<output>
				<port id="3">
					<dim>1</dim>
					<dim>64</dim>
					<dim>8</dim>
					<dim>16</dim>
				</port>
			</output>
			<blobs>
				<weights offset="1010304" size="65536"/>
				<biases offset="1075840" size="256"/>
			</blobs>
		</layer>
		<layer id="56" name="conv3_3_1x1_reduce/conv3_3_1x1_reduce" precision="FP32" type="ReLU">
			<input>
				<port id="0">
					<dim>1</dim>
					<dim>64</dim>
					<dim>8</dim>
					<dim>16</dim>
				</port>
			</input>
			<output>
				<port id="1">
					<dim>1</dim>
					<dim>64</dim>
					<dim>8</dim>
					<dim>16</dim>
				</port>
			</output>
		</layer>
		<layer id="57" name="conv3_3_3x3/Conv2D" precision="FP32" type="Convolution">
			<data dilations="1,1" group="1" kernel="3,3" output="64" pads_begin="1,1" pads_end="1,1" strides="1,1"/>
			<input>
				<port id="0">
					<dim>1</dim>
					<dim>64</dim>
					<dim>8</dim>
					<dim>16</dim>
				</port>
			</input>
			<output>
				<port id="3">
					<dim>1</dim>
					<dim>64</dim>
					<dim>8</dim>
					<dim>16</dim>
				</port>
			</output>
			<blobs>
				<weights offset="1076096" size="147456"/>
				<biases offset="1223552" size="256"/>
			</blobs>
		</layer>
		<layer id="58" name="conv3_3_3x3/conv3_3_3x3" precision="FP32" type="ReLU">
			<input>
				<port id="0">
					<dim>1</dim>
					<dim>64</dim>
					<dim>8</dim>
					<dim>16</dim>
				</port>
			</input>
			<output>
				<port id="1">
					<dim>1</dim>
					<dim>64</dim>
					<dim>8</dim>
					<dim>16</dim>
				</port>
			</output>
		</layer>
		<layer id="59" name="conv3_3_1x1_increase/Conv2D" precision="FP32" type="Convolution">
			<data auto_pad="valid" dilations="1,1" group="1" kernel="1,1" output="256" pads_begin="0,0" pads_end="0,0" strides="1,1"/>
			<input>
				<port id="0">
					<dim>1</dim>
					<dim>64</dim>
					<dim>8</dim>
					<dim>16</dim>
				</port>
			</input>
			<output>
				<port id="3">
					<dim>1</dim>
					<dim>256</dim>
					<dim>8</dim>
					<dim>16</dim>
				</port>
			</output>
			<blobs>
				<weights offset="1223808" size="65536"/>
				<biases offset="1289344" size="1024"/>
			</blobs>
		</layer>
		<layer id="60" name="conv3_3/sum_1" precision="FP32" type="Eltwise">
			<data operation="sum"/>
			<input>
				<port id="0">
					<dim>1</dim>
					<dim>256</dim>
					<dim>8</dim>
					<dim>16</dim>
				</port>
				<port id="1">
					<dim>1</dim>
					<dim>256</dim>
					<dim>8</dim>
					<dim>16</dim>
				</port>
			</input>
			<output>
				<port id="2">
					<dim>1</dim>
					<dim>256</dim>
					<dim>8</dim>
					<dim>16</dim>
				</port>
			</output>
		</layer>
		<layer id="61" name="conv3_3/relu" precision="FP32" type="ReLU">
			<input>
				<port id="0">
					<dim>1</dim>
					<dim>256</dim>
					<dim>8</dim>
					<dim>16</dim>
				</port>
			</input>
			<output>
				<port id="1">
					<dim>1</dim>
					<dim>256</dim>
					<dim>8</dim>
					<dim>16</dim>
				</port>
			</output>
		</layer>
		<layer id="62" name="ResizeBilinear_6" precision="FP32" type="Interp">
			<data align_corners="0" factor="1.0" pad_beg="0" pad_end="0"/>
			<input>
				<port id="0">
					<dim>1</dim>
					<dim>256</dim>
					<dim>8</dim>
					<dim>16</dim>
				</port>
			</input>
			<output>
				<port id="1">
					<dim>1</dim>
					<dim>256</dim>
					<dim>8</dim>
					<dim>16</dim>
				</port>
			</output>
		</layer>
		<layer id="63" name="conv3_4_1x1_reduce/Conv2D" precision="FP32" type="Convolution">
			<data auto_pad="valid" dilations="1,1" group="1" kernel="1,1" output="64" pads_begin="0,0" pads_end="0,0" strides="1,1"/>
			<input>
				<port id="0">
					<dim>1</dim>
					<dim>256</dim>
					<dim>8</dim>
					<dim>16</dim>
				</port>
			</input>
			<output>
				<port id="3">
					<dim>1</dim>
					<dim>64</dim>
					<dim>8</dim>
					<dim>16</dim>
				</port>
			</output>
			<blobs>
				<weights offset="1290368" size="65536"/>
				<biases offset="1355904" size="256"/>
			</blobs>
		</layer>
		<layer id="64" name="conv3_4_1x1_reduce/conv3_4_1x1_reduce" precision="FP32" type="ReLU">
			<input>
				<port id="0">
					<dim>1</dim>
					<dim>64</dim>
					<dim>8</dim>
					<dim>16</dim>
				</port>
			</input>
			<output>
				<port id="1">
					<dim>1</dim>
					<dim>64</dim>
					<dim>8</dim>
					<dim>16</dim>
				</port>
			</output>
		</layer>
		<layer id="65" name="conv3_4_3x3/Conv2D" precision="FP32" type="Convolution">
			<data dilations="1,1" group="1" kernel="3,3" output="64" pads_begin="1,1" pads_end="1,1" strides="1,1"/>
			<input>
				<port id="0">
					<dim>1</dim>
					<dim>64</dim>
					<dim>8</dim>
					<dim>16</dim>
				</port>
			</input>
			<output>
				<port id="3">
					<dim>1</dim>
					<dim>64</dim>
					<dim>8</dim>
					<dim>16</dim>
				</port>
			</output>
			<blobs>
				<weights offset="1356160" size="147456"/>
				<biases offset="1503616" size="256"/>
			</blobs>
		</layer>
		<layer id="66" name="conv3_4_3x3/conv3_4_3x3" precision="FP32" type="ReLU">
			<input>
				<port id="0">
					<dim>1</dim>
					<dim>64</dim>
					<dim>8</dim>
					<dim>16</dim>
				</port>
			</input>
			<output>
				<port id="1">
					<dim>1</dim>
					<dim>64</dim>
					<dim>8</dim>
					<dim>16</dim>
				</port>
			</output>
		</layer>
		<layer id="67" name="conv3_4_1x1_increase/Conv2D" precision="FP32" type="Convolution">
			<data auto_pad="valid" dilations="1,1" group="1" kernel="1,1" output="256" pads_begin="0,0" pads_end="0,0" strides="1,1"/>
			<input>
				<port id="0">
					<dim>1</dim>
					<dim>64</dim>
					<dim>8</dim>
					<dim>16</dim>
				</port>
			</input>
			<output>
				<port id="3">
					<dim>1</dim>
					<dim>256</dim>
					<dim>8</dim>
					<dim>16</dim>
				</port>
			</output>
			<blobs>
				<weights offset="1503872" size="65536"/>
				<biases offset="1569408" size="1024"/>
			</blobs>
		</layer>
		<layer id="68" name="conv3_4/sum_1" precision="FP32" type="Eltwise">
			<data operation="sum"/>
			<input>
				<port id="0">
					<dim>1</dim>
					<dim>256</dim>
					<dim>8</dim>
					<dim>16</dim>
				</port>
				<port id="1">
					<dim>1</dim>
					<dim>256</dim>
					<dim>8</dim>
					<dim>16</dim>
				</port>
			</input>
			<output>
				<port id="2">
					<dim>1</dim>
					<dim>256</dim>
					<dim>8</dim>
					<dim>16</dim>
				</port>
			</output>
		</layer>
		<layer id="69" name="conv3_4/relu" precision="FP32" type="ReLU">
			<input>
				<port id="0">
					<dim>1</dim>
					<dim>256</dim>
					<dim>8</dim>
					<dim>16</dim>
				</port>
			</input>
			<output>
				<port id="1">
					<dim>1</dim>
					<dim>256</dim>
					<dim>8</dim>
					<dim>16</dim>
				</port>
			</output>
		</layer>
		<layer id="70" name="conv4_1_1x1_proj/Conv2D" precision="FP32" type="Convolution">
			<data auto_pad="valid" dilations="1,1" group="1" kernel="1,1" output="512" pads_begin="0,0" pads_end="0,0" strides="1,1"/>
			<input>
				<port id="0">
					<dim>1</dim>
					<dim>256</dim>
					<dim>8</dim>
					<dim>16</dim>
				</port>
			</input>
			<output>
				<port id="3">
					<dim>1</dim>
					<dim>512</dim>
					<dim>8</dim>
					<dim>16</dim>
				</port>
			</output>
			<blobs>
				<weights offset="1570432" size="524288"/>
				<biases offset="2094720" size="2048"/>
			</blobs>
		</layer>
		<layer id="71" name="ResizeBilinear_7" precision="FP32" type="Interp">
			<data align_corners="0" factor="1.0" pad_beg="0" pad_end="0"/>
			<input>
				<port id="0">
					<dim>1</dim>
					<dim>512</dim>
					<dim>8</dim>
					<dim>16</dim>
				</port>
			</input>
			<output>
				<port id="1">
					<dim>1</dim>
					<dim>512</dim>
					<dim>8</dim>
					<dim>16</dim>
				</port>
			</output>
		</layer>
		<layer id="72" name="conv4_1_1x1_reduce/Conv2D" precision="FP32" type="Convolution">
			<data auto_pad="valid" dilations="1,1" group="1" kernel="1,1" output="128" pads_begin="0,0" pads_end="0,0" strides="1,1"/>
			<input>
				<port id="0">
					<dim>1</dim>
					<dim>256</dim>
					<dim>8</dim>
					<dim>16</dim>
				</port>
			</input>
			<output>
				<port id="3">
					<dim>1</dim>
					<dim>128</dim>
					<dim>8</dim>
					<dim>16</dim>
				</port>
			</output>
			<blobs>
				<weights offset="2096768" size="131072"/>
				<biases offset="2227840" size="512"/>
			</blobs>
		</layer>
		<layer id="73" name="conv4_1_1x1_reduce/conv4_1_1x1_reduce" precision="FP32" type="ReLU">
			<input>
				<port id="0">
					<dim>1</dim>
					<dim>128</dim>
					<dim>8</dim>
					<dim>16</dim>
				</port>
			</input>
			<output>
				<port id="1">
					<dim>1</dim>
					<dim>128</dim>
					<dim>8</dim>
					<dim>16</dim>
				</port>
			</output>
		</layer>
		<layer id="74" name="conv4_1_3x3/convolution" precision="FP32" type="Convolution">
			<data dilations="2,2" group="1" kernel="3,3" output="128" pads_begin="2,2" pads_end="2,2" strides="1,1"/>
			<input>
				<port id="0">
					<dim>1</dim>
					<dim>128</dim>
					<dim>8</dim>
					<dim>16</dim>
				</port>
			</input>
			<output>
				<port id="3">
					<dim>1</dim>
					<dim>128</dim>
					<dim>8</dim>
					<dim>16</dim>
				</port>
			</output>
			<blobs>
				<weights offset="2228352" size="589824"/>
				<biases offset="2818176" size="512"/>
			</blobs>
		</layer>
		<layer id="75" name="conv4_1_3x3/conv4_1_3x3" precision="FP32" type="ReLU">
			<input>
				<port id="0">
					<dim>1</dim>
					<dim>128</dim>
					<dim>8</dim>
					<dim>16</dim>
				</port>
			</input>
			<output>
				<port id="1">
					<dim>1</dim>
					<dim>128</dim>
					<dim>8</dim>
					<dim>16</dim>
				</port>
			</output>
		</layer>
		<layer id="76" name="conv4_1_1x1_increase/Conv2D" precision="FP32" type="Convolution">
			<data auto_pad="valid" dilations="1,1" group="1" kernel="1,1" output="512" pads_begin="0,0" pads_end="0,0" strides="1,1"/>
			<input>
				<port id="0">
					<dim>1</dim>
					<dim>128</dim>
					<dim>8</dim>
					<dim>16</dim>
				</port>
			</input>
			<output>
				<port id="3">
					<dim>1</dim>
					<dim>512</dim>
					<dim>8</dim>
					<dim>16</dim>
				</port>
			</output>
			<blobs>
				<weights offset="2818688" size="262144"/>
				<biases offset="3080832" size="2048"/>
			</blobs>
		</layer>
		<layer id="77" name="conv4_1/sum_1" precision="FP32" type="Eltwise">
			<data operation="sum"/>
			<input>
				<port id="0">
					<dim>1</dim>
					<dim>512</dim>
					<dim>8</dim>
					<dim>16</dim>
				</port>
				<port id="1">
					<dim>1</dim>
					<dim>512</dim>
					<dim>8</dim>
					<dim>16</dim>
				</port>
			</input>
			<output>
				<port id="2">
					<dim>1</dim>
					<dim>512</dim>
					<dim>8</dim>
					<dim>16</dim>
				</port>
			</output>
		</layer>
		<layer id="78" name="conv4_1/relu" precision="FP32" type="ReLU">
			<input>
				<port id="0">
					<dim>1</dim>
					<dim>512</dim>
					<dim>8</dim>
					<dim>16</dim>
				</port>
			</input>
			<output>
				<port id="1">
					<dim>1</dim>
					<dim>512</dim>
					<dim>8</dim>
					<dim>16</dim>
				</port>
			</output>
		</layer>
		<layer id="79" name="ResizeBilinear_8" precision="FP32" type="Interp">
			<data align_corners="0" factor="1.0" pad_beg="0" pad_end="0"/>
			<input>
				<port id="0">
					<dim>1</dim>
					<dim>512</dim>
					<dim>8</dim>
					<dim>16</dim>
				</port>
			</input>
			<output>
				<port id="1">
					<dim>1</dim>
					<dim>512</dim>
					<dim>8</dim>
					<dim>16</dim>
				</port>
			</output>
		</layer>
		<layer id="80" name="conv4_2_1x1_reduce/Conv2D" precision="FP32" type="Convolution">
			<data auto_pad="valid" dilations="1,1" group="1" kernel="1,1" output="128" pads_begin="0,0" pads_end="0,0" strides="1,1"/>
			<input>
				<port id="0">
					<dim>1</dim>
					<dim>512</dim>
					<dim>8</dim>
					<dim>16</dim>
				</port>
			</input>
			<output>
				<port id="3">
					<dim>1</dim>
					<dim>128</dim>
					<dim>8</dim>
					<dim>16</dim>
				</port>
			</output>
			<blobs>
				<weights offset="3082880" size="262144"/>
				<biases offset="3345024" size="512"/>
			</blobs>
		</layer>
		<layer id="81" name="conv4_2_1x1_reduce/conv4_2_1x1_reduce" precision="FP32" type="ReLU">
			<input>
				<port id="0">
					<dim>1</dim>
					<dim>128</dim>
					<dim>8</dim>
					<dim>16</dim>
				</port>
			</input>
			<output>
				<port id="1">
					<dim>1</dim>
					<dim>128</dim>
					<dim>8</dim>
					<dim>16</dim>
				</port>
			</output>
		</layer>
		<layer id="82" name="conv4_2_3x3/convolution" precision="FP32" type="Convolution">
			<data dilations="2,2" group="1" kernel="3,3" output="128" pads_begin="2,2" pads_end="2,2" strides="1,1"/>
			<input>
				<port id="0">
					<dim>1</dim>
					<dim>128</dim>
					<dim>8</dim>
					<dim>16</dim>
				</port>
			</input>
			<output>
				<port id="3">
					<dim>1</dim>
					<dim>128</dim>
					<dim>8</dim>
					<dim>16</dim>
				</port>
			</output>
			<blobs>
				<weights offset="3345536" size="589824"/>
				<biases offset="3935360" size="512"/>
			</blobs>
		</layer>
		<layer id="83" name="conv4_2_3x3/conv4_2_3x3" precision="FP32" type="ReLU">
			<input>
				<port id="0">
					<dim>1</dim>
					<dim>128</dim>
					<dim>8</dim>
					<dim>16</dim>
				</port>
			</input>
			<output>
				<port id="1">
					<dim>1</dim>
					<dim>128</dim>
					<dim>8</dim>
					<dim>16</dim>
				</port>
			</output>
		</layer>
		<layer id="84" name="conv4_2_1x1_increase/Conv2D" precision="FP32" type="Convolution">
			<data auto_pad="valid" dilations="1,1" group="1" kernel="1,1" output="512" pads_begin="0,0" pads_end="0,0" strides="1,1"/>
			<input>
				<port id="0">
					<dim>1</dim>
					<dim>128</dim>
					<dim>8</dim>
					<dim>16</dim>
				</port>
			</input>
			<output>
				<port id="3">
					<dim>1</dim>
					<dim>512</dim>
					<dim>8</dim>
					<dim>16</dim>
				</port>
			</output>
			<blobs>
				<weights offset="3935872" size="262144"/>
				<biases offset="4198016" size="2048"/>
			</blobs>
		</layer>
		<layer id="85" name="conv4_2/sum_1" precision="FP32" type="Eltwise">
			<data operation="sum"/>
			<input>
				<port id="0">
					<dim>1</dim>
					<dim>512</dim>
					<dim>8</dim>
					<dim>16</dim>
				</port>
				<port id="1">
					<dim>1</dim>
					<dim>512</dim>
					<dim>8</dim>
					<dim>16</dim>
				</port>
			</input>
			<output>
				<port id="2">
					<dim>1</dim>
					<dim>512</dim>
					<dim>8</dim>
					<dim>16</dim>
				</port>
			</output>
		</layer>
		<layer id="86" name="conv4_2/relu" precision="FP32" type="ReLU">
			<input>
				<port id="0">
					<dim>1</dim>
					<dim>512</dim>
					<dim>8</dim>
					<dim>16</dim>
				</port>
			</input>
			<output>
				<port id="1">
					<dim>1</dim>
					<dim>512</dim>
					<dim>8</dim>
					<dim>16</dim>
				</port>
			</output>
		</layer>
		<layer id="87" name="ResizeBilinear_9" precision="FP32" type="Interp">
			<data align_corners="0" factor="1.0" pad_beg="0" pad_end="0"/>
			<input>
				<port id="0">
					<dim>1</dim>
					<dim>512</dim>
					<dim>8</dim>
					<dim>16</dim>
				</port>
			</input>
			<output>
				<port id="1">
					<dim>1</dim>
					<dim>512</dim>
					<dim>8</dim>
					<dim>16</dim>
				</port>
			</output>
		</layer>
		<layer id="88" name="conv4_3_1x1_reduce/Conv2D" precision="FP32" type="Convolution">
			<data auto_pad="valid" dilations="1,1" group="1" kernel="1,1" output="128" pads_begin="0,0" pads_end="0,0" strides="1,1"/>
			<input>
				<port id="0">
					<dim>1</dim>
					<dim>512</dim>
					<dim>8</dim>
					<dim>16</dim>
				</port>
			</input>
			<output>
				<port id="3">
					<dim>1</dim>
					<dim>128</dim>
					<dim>8</dim>
					<dim>16</dim>
				</port>
			</output>
			<blobs>
				<weights offset="4200064" size="262144"/>
				<biases offset="4462208" size="512"/>
			</blobs>
		</layer>
		<layer id="89" name="conv4_3_1x1_reduce/conv4_3_1x1_reduce" precision="FP32" type="ReLU">
			<input>
				<port id="0">
					<dim>1</dim>
					<dim>128</dim>
					<dim>8</dim>
					<dim>16</dim>
				</port>
			</input>
			<output>
				<port id="1">
					<dim>1</dim>
					<dim>128</dim>
					<dim>8</dim>
					<dim>16</dim>
				</port>
			</output>
		</layer>
		<layer id="90" name="conv4_3_3x3/convolution" precision="FP32" type="Convolution">
			<data dilations="2,2" group="1" kernel="3,3" output="128" pads_begin="2,2" pads_end="2,2" strides="1,1"/>
			<input>
				<port id="0">
					<dim>1</dim>
					<dim>128</dim>
					<dim>8</dim>
					<dim>16</dim>
				</port>
			</input>
			<output>
				<port id="3">
					<dim>1</dim>
					<dim>128</dim>
					<dim>8</dim>
					<dim>16</dim>
				</port>
			</output>
			<blobs>
				<weights offset="4462720" size="589824"/>
				<biases offset="5052544" size="512"/>
			</blobs>
		</layer>
		<layer id="91" name="conv4_3_3x3/conv4_3_3x3" precision="FP32" type="ReLU">
			<input>
				<port id="0">
					<dim>1</dim>
					<dim>128</dim>
					<dim>8</dim>
					<dim>16</dim>
				</port>
			</input>
			<output>
				<port id="1">
					<dim>1</dim>
					<dim>128</dim>
					<dim>8</dim>
					<dim>16</dim>
				</port>
			</output>
		</layer>
		<layer id="92" name="conv4_3_1x1_increase/Conv2D" precision="FP32" type="Convolution">
			<data auto_pad="valid" dilations="1,1" group="1" kernel="1,1" output="512" pads_begin="0,0" pads_end="0,0" strides="1,1"/>
			<input>
				<port id="0">
					<dim>1</dim>
					<dim>128</dim>
					<dim>8</dim>
					<dim>16</dim>
				</port>
			</input>
			<output>
				<port id="3">
					<dim>1</dim>
					<dim>512</dim>
					<dim>8</dim>
					<dim>16</dim>
				</port>
			</output>
			<blobs>
				<weights offset="5053056" size="262144"/>
				<biases offset="5315200" size="2048"/>
			</blobs>
		</layer>
		<layer id="93" name="conv4_3/sum_1" precision="FP32" type="Eltwise">
			<data operation="sum"/>
			<input>
				<port id="0">
					<dim>1</dim>
					<dim>512</dim>
					<dim>8</dim>
					<dim>16</dim>
				</port>
				<port id="1">
					<dim>1</dim>
					<dim>512</dim>
					<dim>8</dim>
					<dim>16</dim>
				</port>
			</input>
			<output>
				<port id="2">
					<dim>1</dim>
					<dim>512</dim>
					<dim>8</dim>
					<dim>16</dim>
				</port>
			</output>
		</layer>
		<layer id="94" name="conv4_3/relu" precision="FP32" type="ReLU">
			<input>
				<port id="0">
					<dim>1</dim>
					<dim>512</dim>
					<dim>8</dim>
					<dim>16</dim>
				</port>
			</input>
			<output>
				<port id="1">
					<dim>1</dim>
					<dim>512</dim>
					<dim>8</dim>
					<dim>16</dim>
				</port>
			</output>
		</layer>
		<layer id="95" name="ResizeBilinear_10" precision="FP32" type="Interp">
			<data align_corners="0" factor="1.0" pad_beg="0" pad_end="0"/>
			<input>
				<port id="0">
					<dim>1</dim>
					<dim>512</dim>
					<dim>8</dim>
					<dim>16</dim>
				</port>
			</input>
			<output>
				<port id="1">
					<dim>1</dim>
					<dim>512</dim>
					<dim>8</dim>
					<dim>16</dim>
				</port>
			</output>
		</layer>
		<layer id="96" name="conv4_4_1x1_reduce/Conv2D" precision="FP32" type="Convolution">
			<data auto_pad="valid" dilations="1,1" group="1" kernel="1,1" output="128" pads_begin="0,0" pads_end="0,0" strides="1,1"/>
			<input>
				<port id="0">
					<dim>1</dim>
					<dim>512</dim>
					<dim>8</dim>
					<dim>16</dim>
				</port>
			</input>
			<output>
				<port id="3">
					<dim>1</dim>
					<dim>128</dim>
					<dim>8</dim>
					<dim>16</dim>
				</port>
			</output>
			<blobs>
				<weights offset="5317248" size="262144"/>
				<biases offset="5579392" size="512"/>
			</blobs>
		</layer>
		<layer id="97" name="conv4_4_1x1_reduce/conv4_4_1x1_reduce" precision="FP32" type="ReLU">
			<input>
				<port id="0">
					<dim>1</dim>
					<dim>128</dim>
					<dim>8</dim>
					<dim>16</dim>
				</port>
			</input>
			<output>
				<port id="1">
					<dim>1</dim>
					<dim>128</dim>
					<dim>8</dim>
					<dim>16</dim>
				</port>
			</output>
		</layer>
		<layer id="98" name="conv4_4_3x3/convolution" precision="FP32" type="Convolution">
			<data dilations="2,2" group="1" kernel="3,3" output="128" pads_begin="2,2" pads_end="2,2" strides="1,1"/>
			<input>
				<port id="0">
					<dim>1</dim>
					<dim>128</dim>
					<dim>8</dim>
					<dim>16</dim>
				</port>
			</input>
			<output>
				<port id="3">
					<dim>1</dim>
					<dim>128</dim>
					<dim>8</dim>
					<dim>16</dim>
				</port>
			</output>
			<blobs>
				<weights offset="5579904" size="589824"/>
				<biases offset="6169728" size="512"/>
			</blobs>
		</layer>
		<layer id="99" name="conv4_4_3x3/conv4_4_3x3" precision="FP32" type="ReLU">
			<input>
				<port id="0">
					<dim>1</dim>
					<dim>128</dim>
					<dim>8</dim>
					<dim>16</dim>
				</port>
			</input>
			<output>
				<port id="1">
					<dim>1</dim>
					<dim>128</dim>
					<dim>8</dim>
					<dim>16</dim>
				</port>
			</output>
		</layer>
		<layer id="100" name="conv4_4_1x1_increase/Conv2D" precision="FP32" type="Convolution">
			<data auto_pad="valid" dilations="1,1" group="1" kernel="1,1" output="512" pads_begin="0,0" pads_end="0,0" strides="1,1"/>
			<input>
				<port id="0">
					<dim>1</dim>
					<dim>128</dim>
					<dim>8</dim>
					<dim>16</dim>
				</port>
			</input>
			<output>
				<port id="3">
					<dim>1</dim>
					<dim>512</dim>
					<dim>8</dim>
					<dim>16</dim>
				</port>
			</output>
			<blobs>
				<weights offset="6170240" size="262144"/>
				<biases offset="6432384" size="2048"/>
			</blobs>
		</layer>
		<layer id="101" name="conv4_4/sum_1" precision="FP32" type="Eltwise">
			<data operation="sum"/>
			<input>
				<port id="0">
					<dim>1</dim>
					<dim>512</dim>
					<dim>8</dim>
					<dim>16</dim>
				</port>
				<port id="1">
					<dim>1</dim>
					<dim>512</dim>
					<dim>8</dim>
					<dim>16</dim>
				</port>
			</input>
			<output>
				<port id="2">
					<dim>1</dim>
					<dim>512</dim>
					<dim>8</dim>
					<dim>16</dim>
				</port>
			</output>
		</layer>
		<layer id="102" name="conv4_4/relu" precision="FP32" type="ReLU">
			<input>
				<port id="0">
					<dim>1</dim>
					<dim>512</dim>
					<dim>8</dim>
					<dim>16</dim>
				</port>
			</input>
			<output>
				<port id="1">
					<dim>1</dim>
					<dim>512</dim>
					<dim>8</dim>
					<dim>16</dim>
				</port>
			</output>
		</layer>
		<layer id="103" name="ResizeBilinear_11" precision="FP32" type="Interp">
			<data align_corners="0" factor="1.0" pad_beg="0" pad_end="0"/>
			<input>
				<port id="0">
					<dim>1</dim>
					<dim>512</dim>
					<dim>8</dim>
					<dim>16</dim>
				</port>
			</input>
			<output>
				<port id="1">
					<dim>1</dim>
					<dim>512</dim>
					<dim>8</dim>
					<dim>16</dim>
				</port>
			</output>
		</layer>
		<layer id="104" name="conv4_5_1x1_reduce/Conv2D" precision="FP32" type="Convolution">
			<data auto_pad="valid" dilations="1,1" group="1" kernel="1,1" output="128" pads_begin="0,0" pads_end="0,0" strides="1,1"/>
			<input>
				<port id="0">
					<dim>1</dim>
					<dim>512</dim>
					<dim>8</dim>
					<dim>16</dim>
				</port>
			</input>
			<output>
				<port id="3">
					<dim>1</dim>
					<dim>128</dim>
					<dim>8</dim>
					<dim>16</dim>
				</port>
			</output>
			<blobs>
				<weights offset="6434432" size="262144"/>
				<biases offset="6696576" size="512"/>
			</blobs>
		</layer>
		<layer id="105" name="conv4_5_1x1_reduce/conv4_5_1x1_reduce" precision="FP32" type="ReLU">
			<input>
				<port id="0">
					<dim>1</dim>
					<dim>128</dim>
					<dim>8</dim>
					<dim>16</dim>
				</port>
			</input>
			<output>
				<port id="1">
					<dim>1</dim>
					<dim>128</dim>
					<dim>8</dim>
					<dim>16</dim>
				</port>
			</output>
		</layer>
		<layer id="106" name="conv4_5_3x3/convolution" precision="FP32" type="Convolution">
			<data dilations="2,2" group="1" kernel="3,3" output="128" pads_begin="2,2" pads_end="2,2" strides="1,1"/>
			<input>
				<port id="0">
					<dim>1</dim>
					<dim>128</dim>
					<dim>8</dim>
					<dim>16</dim>
				</port>
			</input>
			<output>
				<port id="3">
					<dim>1</dim>
					<dim>128</dim>
					<dim>8</dim>
					<dim>16</dim>
				</port>
			</output>
			<blobs>
				<weights offset="6697088" size="589824"/>
				<biases offset="7286912" size="512"/>
			</blobs>
		</layer>
		<layer id="107" name="conv4_5_3x3/conv4_5_3x3" precision="FP32" type="ReLU">
			<input>
				<port id="0">
					<dim>1</dim>
					<dim>128</dim>
					<dim>8</dim>
					<dim>16</dim>
				</port>
			</input>
			<output>
				<port id="1">
					<dim>1</dim>
					<dim>128</dim>
					<dim>8</dim>
					<dim>16</dim>
				</port>
			</output>
		</layer>
		<layer id="108" name="conv4_5_1x1_increase/Conv2D" precision="FP32" type="Convolution">
			<data auto_pad="valid" dilations="1,1" group="1" kernel="1,1" output="512" pads_begin="0,0" pads_end="0,0" strides="1,1"/>
			<input>
				<port id="0">
					<dim>1</dim>
					<dim>128</dim>
					<dim>8</dim>
					<dim>16</dim>
				</port>
			</input>
			<output>
				<port id="3">
					<dim>1</dim>
					<dim>512</dim>
					<dim>8</dim>
					<dim>16</dim>
				</port>
			</output>
			<blobs>
				<weights offset="7287424" size="262144"/>
				<biases offset="7549568" size="2048"/>
			</blobs>
		</layer>
		<layer id="109" name="conv4_5/sum_1" precision="FP32" type="Eltwise">
			<data operation="sum"/>
			<input>
				<port id="0">
					<dim>1</dim>
					<dim>512</dim>
					<dim>8</dim>
					<dim>16</dim>
				</port>
				<port id="1">
					<dim>1</dim>
					<dim>512</dim>
					<dim>8</dim>
					<dim>16</dim>
				</port>
			</input>
			<output>
				<port id="2">
					<dim>1</dim>
					<dim>512</dim>
					<dim>8</dim>
					<dim>16</dim>
				</port>
			</output>
		</layer>
		<layer id="110" name="conv4_5/relu" precision="FP32" type="ReLU">
			<input>
				<port id="0">
					<dim>1</dim>
					<dim>512</dim>
					<dim>8</dim>
					<dim>16</dim>
				</port>
			</input>
			<output>
				<port id="1">
					<dim>1</dim>
					<dim>512</dim>
					<dim>8</dim>
					<dim>16</dim>
				</port>
			</output>
		</layer>
		<layer id="111" name="ResizeBilinear_12" precision="FP32" type="Interp">
			<data align_corners="0" factor="1.0" pad_beg="0" pad_end="0"/>
			<input>
				<port id="0">
					<dim>1</dim>
					<dim>512</dim>
					<dim>8</dim>
					<dim>16</dim>
				</port>
			</input>
			<output>
				<port id="1">
					<dim>1</dim>
					<dim>512</dim>
					<dim>8</dim>
					<dim>16</dim>
				</port>
			</output>
		</layer>
		<layer id="112" name="conv4_6_1x1_reduce/Conv2D" precision="FP32" type="Convolution">
			<data auto_pad="valid" dilations="1,1" group="1" kernel="1,1" output="128" pads_begin="0,0" pads_end="0,0" strides="1,1"/>
			<input>
				<port id="0">
					<dim>1</dim>
					<dim>512</dim>
					<dim>8</dim>
					<dim>16</dim>
				</port>
			</input>
			<output>
				<port id="3">
					<dim>1</dim>
					<dim>128</dim>
					<dim>8</dim>
					<dim>16</dim>
				</port>
			</output>
			<blobs>
				<weights offset="7551616" size="262144"/>
				<biases offset="7813760" size="512"/>
			</blobs>
		</layer>
		<layer id="113" name="conv4_6_1x1_reduce/conv4_6_1x1_reduce" precision="FP32" type="ReLU">
			<input>
				<port id="0">
					<dim>1</dim>
					<dim>128</dim>
					<dim>8</dim>
					<dim>16</dim>
				</port>
			</input>
			<output>
				<port id="1">
					<dim>1</dim>
					<dim>128</dim>
					<dim>8</dim>
					<dim>16</dim>
				</port>
			</output>
		</layer>
		<layer id="114" name="conv4_6_3x3/convolution" precision="FP32" type="Convolution">
			<data dilations="2,2" group="1" kernel="3,3" output="128" pads_begin="2,2" pads_end="2,2" strides="1,1"/>
			<input>
				<port id="0">
					<dim>1</dim>
					<dim>128</dim>
					<dim>8</dim>
					<dim>16</dim>
				</port>
			</input>
			<output>
				<port id="3">
					<dim>1</dim>
					<dim>128</dim>
					<dim>8</dim>
					<dim>16</dim>
				</port>
			</output>
			<blobs>
				<weights offset="7814272" size="589824"/>
				<biases offset="8404096" size="512"/>
			</blobs>
		</layer>
		<layer id="115" name="conv4_6_3x3/conv4_6_3x3" precision="FP32" type="ReLU">
			<input>
				<port id="0">
					<dim>1</dim>
					<dim>128</dim>
					<dim>8</dim>
					<dim>16</dim>
				</port>
			</input>
			<output>
				<port id="1">
					<dim>1</dim>
					<dim>128</dim>
					<dim>8</dim>
					<dim>16</dim>
				</port>
			</output>
		</layer>
		<layer id="116" name="conv4_6_1x1_increase/Conv2D" precision="FP32" type="Convolution">
			<data auto_pad="valid" dilations="1,1" group="1" kernel="1,1" output="512" pads_begin="0,0" pads_end="0,0" strides="1,1"/>
			<input>
				<port id="0">
					<dim>1</dim>
					<dim>128</dim>
					<dim>8</dim>
					<dim>16</dim>
				</port>
			</input>
			<output>
				<port id="3">
					<dim>1</dim>
					<dim>512</dim>
					<dim>8</dim>
					<dim>16</dim>
				</port>
			</output>
			<blobs>
				<weights offset="8404608" size="262144"/>
				<biases offset="8666752" size="2048"/>
			</blobs>
		</layer>
		<layer id="117" name="conv4_6/sum_1" precision="FP32" type="Eltwise">
			<data operation="sum"/>
			<input>
				<port id="0">
					<dim>1</dim>
					<dim>512</dim>
					<dim>8</dim>
					<dim>16</dim>
				</port>
				<port id="1">
					<dim>1</dim>
					<dim>512</dim>
					<dim>8</dim>
					<dim>16</dim>
				</port>
			</input>
			<output>
				<port id="2">
					<dim>1</dim>
					<dim>512</dim>
					<dim>8</dim>
					<dim>16</dim>
				</port>
			</output>
		</layer>
		<layer id="118" name="conv4_6/relu" precision="FP32" type="ReLU">
			<input>
				<port id="0">
					<dim>1</dim>
					<dim>512</dim>
					<dim>8</dim>
					<dim>16</dim>
				</port>
			</input>
			<output>
				<port id="1">
					<dim>1</dim>
					<dim>512</dim>
					<dim>8</dim>
					<dim>16</dim>
				</port>
			</output>
		</layer>
		<layer id="119" name="conv5_1_1x1_proj/Conv2D" precision="FP32" type="Convolution">
			<data auto_pad="valid" dilations="1,1" group="1" kernel="1,1" output="1024" pads_begin="0,0" pads_end="0,0" strides="1,1"/>
			<input>
				<port id="0">
					<dim>1</dim>
					<dim>512</dim>
					<dim>8</dim>
					<dim>16</dim>
				</port>
			</input>
			<output>
				<port id="3">
					<dim>1</dim>
					<dim>1024</dim>
					<dim>8</dim>
					<dim>16</dim>
				</port>
			</output>
			<blobs>
				<weights offset="8668800" size="2097152"/>
				<biases offset="10765952" size="4096"/>
			</blobs>
		</layer>
		<layer id="120" name="ResizeBilinear_13" precision="FP32" type="Interp">
			<data align_corners="0" factor="1.0" pad_beg="0" pad_end="0"/>
			<input>
				<port id="0">
					<dim>1</dim>
					<dim>1024</dim>
					<dim>8</dim>
					<dim>16</dim>
				</port>
			</input>
			<output>
				<port id="1">
					<dim>1</dim>
					<dim>1024</dim>
					<dim>8</dim>
					<dim>16</dim>
				</port>
			</output>
		</layer>
		<layer id="121" name="conv5_1_1x1_reduce/Conv2D" precision="FP32" type="Convolution">
			<data auto_pad="valid" dilations="1,1" group="1" kernel="1,1" output="256" pads_begin="0,0" pads_end="0,0" strides="1,1"/>
			<input>
				<port id="0">
					<dim>1</dim>
					<dim>512</dim>
					<dim>8</dim>
					<dim>16</dim>
				</port>
			</input>
			<output>
				<port id="3">
					<dim>1</dim>
					<dim>256</dim>
					<dim>8</dim>
					<dim>16</dim>
				</port>
			</output>
			<blobs>
				<weights offset="10770048" size="524288"/>
				<biases offset="11294336" size="1024"/>
			</blobs>
		</layer>
		<layer id="122" name="conv5_1_1x1_reduce/conv5_1_1x1_reduce" precision="FP32" type="ReLU">
			<input>
				<port id="0">
					<dim>1</dim>
					<dim>256</dim>
					<dim>8</dim>
					<dim>16</dim>
				</port>
			</input>
			<output>
				<port id="1">
					<dim>1</dim>
					<dim>256</dim>
					<dim>8</dim>
					<dim>16</dim>
				</port>
			</output>
		</layer>
		<layer id="123" name="conv5_1_3x3/convolution" precision="FP32" type="Convolution">
			<data dilations="4,4" group="1" kernel="3,3" output="256" pads_begin="4,4" pads_end="4,4" strides="1,1"/>
			<input>
				<port id="0">
					<dim>1</dim>
					<dim>256</dim>
					<dim>8</dim>
					<dim>16</dim>
				</port>
			</input>
			<output>
				<port id="3">
					<dim>1</dim>
					<dim>256</dim>
					<dim>8</dim>
					<dim>16</dim>
				</port>
			</output>
			<blobs>
				<weights offset="11295360" size="2359296"/>
				<biases offset="13654656" size="1024"/>
			</blobs>
		</layer>
		<layer id="124" name="conv5_1_3x3/conv5_1_3x3" precision="FP32" type="ReLU">
			<input>
				<port id="0">
					<dim>1</dim>
					<dim>256</dim>
					<dim>8</dim>
					<dim>16</dim>
				</port>
			</input>
			<output>
				<port id="1">
					<dim>1</dim>
					<dim>256</dim>
					<dim>8</dim>
					<dim>16</dim>
				</port>
			</output>
		</layer>
		<layer id="125" name="conv5_1_1x1_increase/Conv2D" precision="FP32" type="Convolution">
			<data auto_pad="valid" dilations="1,1" group="1" kernel="1,1" output="1024" pads_begin="0,0" pads_end="0,0" strides="1,1"/>
			<input>
				<port id="0">
					<dim>1</dim>
					<dim>256</dim>
					<dim>8</dim>
					<dim>16</dim>
				</port>
			</input>
			<output>
				<port id="3">
					<dim>1</dim>
					<dim>1024</dim>
					<dim>8</dim>
					<dim>16</dim>
				</port>
			</output>
			<blobs>
				<weights offset="13655680" size="1048576"/>
				<biases offset="14704256" size="4096"/>
			</blobs>
		</layer>
		<layer id="126" name="conv5_1/sum_1" precision="FP32" type="Eltwise">
			<data operation="sum"/>
			<input>
				<port id="0">
					<dim>1</dim>
					<dim>1024</dim>
					<dim>8</dim>
					<dim>16</dim>
				</port>
				<port id="1">
					<dim>1</dim>
					<dim>1024</dim>
					<dim>8</dim>
					<dim>16</dim>
				</port>
			</input>
			<output>
				<port id="2">
					<dim>1</dim>
					<dim>1024</dim>
					<dim>8</dim>
					<dim>16</dim>
				</port>
			</output>
		</layer>
		<layer id="127" name="conv5_1/relu" precision="FP32" type="ReLU">
			<input>
				<port id="0">
					<dim>1</dim>
					<dim>1024</dim>
					<dim>8</dim>
					<dim>16</dim>
				</port>
			</input>
			<output>
				<port id="1">
					<dim>1</dim>
					<dim>1024</dim>
					<dim>8</dim>
					<dim>16</dim>
				</port>
			</output>
		</layer>
		<layer id="128" name="ResizeBilinear_14" precision="FP32" type="Interp">
			<data align_corners="0" factor="1.0" pad_beg="0" pad_end="0"/>
			<input>
				<port id="0">
					<dim>1</dim>
					<dim>1024</dim>
					<dim>8</dim>
					<dim>16</dim>
				</port>
			</input>
			<output>
				<port id="1">
					<dim>1</dim>
					<dim>1024</dim>
					<dim>8</dim>
					<dim>16</dim>
				</port>
			</output>
		</layer>
		<layer id="129" name="conv5_2_1x1_reduce/Conv2D" precision="FP32" type="Convolution">
			<data auto_pad="valid" dilations="1,1" group="1" kernel="1,1" output="256" pads_begin="0,0" pads_end="0,0" strides="1,1"/>
			<input>
				<port id="0">
					<dim>1</dim>
					<dim>1024</dim>
					<dim>8</dim>
					<dim>16</dim>
				</port>
			</input>
			<output>
				<port id="3">
					<dim>1</dim>
					<dim>256</dim>
					<dim>8</dim>
					<dim>16</dim>
				</port>
			</output>
			<blobs>
				<weights offset="14708352" size="1048576"/>
				<biases offset="15756928" size="1024"/>
			</blobs>
		</layer>
		<layer id="130" name="conv5_2_1x1_reduce/conv5_2_1x1_reduce" precision="FP32" type="ReLU">
			<input>
				<port id="0">
					<dim>1</dim>
					<dim>256</dim>
					<dim>8</dim>
					<dim>16</dim>
				</port>
			</input>
			<output>
				<port id="1">
					<dim>1</dim>
					<dim>256</dim>
					<dim>8</dim>
					<dim>16</dim>
				</port>
			</output>
		</layer>
		<layer id="131" name="conv5_2_3x3/convolution" precision="FP32" type="Convolution">
			<data dilations="4,4" group="1" kernel="3,3" output="256" pads_begin="4,4" pads_end="4,4" strides="1,1"/>
			<input>
				<port id="0">
					<dim>1</dim>
					<dim>256</dim>
					<dim>8</dim>
					<dim>16</dim>
				</port>
			</input>
			<output>
				<port id="3">
					<dim>1</dim>
					<dim>256</dim>
					<dim>8</dim>
					<dim>16</dim>
				</port>
			</output>
			<blobs>
				<weights offset="15757952" size="2359296"/>
				<biases offset="18117248" size="1024"/>
			</blobs>
		</layer>
		<layer id="132" name="conv5_2_3x3/conv5_2_3x3" precision="FP32" type="ReLU">
			<input>
				<port id="0">
					<dim>1</dim>
					<dim>256</dim>
					<dim>8</dim>
					<dim>16</dim>
				</port>
			</input>
			<output>
				<port id="1">
					<dim>1</dim>
					<dim>256</dim>
					<dim>8</dim>
					<dim>16</dim>
				</port>
			</output>
		</layer>
		<layer id="133" name="conv5_2_1x1_increase/Conv2D" precision="FP32" type="Convolution">
			<data auto_pad="valid" dilations="1,1" group="1" kernel="1,1" output="1024" pads_begin="0,0" pads_end="0,0" strides="1,1"/>
			<input>
				<port id="0">
					<dim>1</dim>
					<dim>256</dim>
					<dim>8</dim>
					<dim>16</dim>
				</port>
			</input>
			<output>
				<port id="3">
					<dim>1</dim>
					<dim>1024</dim>
					<dim>8</dim>
					<dim>16</dim>
				</port>
			</output>
			<blobs>
				<weights offset="18118272" size="1048576"/>
				<biases offset="19166848" size="4096"/>
			</blobs>
		</layer>
		<layer id="134" name="conv5_2/sum_1" precision="FP32" type="Eltwise">
			<data operation="sum"/>
			<input>
				<port id="0">
					<dim>1</dim>
					<dim>1024</dim>
					<dim>8</dim>
					<dim>16</dim>
				</port>
				<port id="1">
					<dim>1</dim>
					<dim>1024</dim>
					<dim>8</dim>
					<dim>16</dim>
				</port>
			</input>
			<output>
				<port id="2">
					<dim>1</dim>
					<dim>1024</dim>
					<dim>8</dim>
					<dim>16</dim>
				</port>
			</output>
		</layer>
		<layer id="135" name="conv5_2/relu" precision="FP32" type="ReLU">
			<input>
				<port id="0">
					<dim>1</dim>
					<dim>1024</dim>
					<dim>8</dim>
					<dim>16</dim>
				</port>
			</input>
			<output>
				<port id="1">
					<dim>1</dim>
					<dim>1024</dim>
					<dim>8</dim>
					<dim>16</dim>
				</port>
			</output>
		</layer>
		<layer id="136" name="ResizeBilinear_15" precision="FP32" type="Interp">
			<data align_corners="0" factor="1.0" pad_beg="0" pad_end="0"/>
			<input>
				<port id="0">
					<dim>1</dim>
					<dim>1024</dim>
					<dim>8</dim>
					<dim>16</dim>
				</port>
			</input>
			<output>
				<port id="1">
					<dim>1</dim>
					<dim>1024</dim>
					<dim>8</dim>
					<dim>16</dim>
				</port>
			</output>
		</layer>
		<layer id="137" name="conv5_3_1x1_reduce/Conv2D" precision="FP32" type="Convolution">
			<data auto_pad="valid" dilations="1,1" group="1" kernel="1,1" output="256" pads_begin="0,0" pads_end="0,0" strides="1,1"/>
			<input>
				<port id="0">
					<dim>1</dim>
					<dim>1024</dim>
					<dim>8</dim>
					<dim>16</dim>
				</port>
			</input>
			<output>
				<port id="3">
					<dim>1</dim>
					<dim>256</dim>
					<dim>8</dim>
					<dim>16</dim>
				</port>
			</output>
			<blobs>
				<weights offset="19170944" size="1048576"/>
				<biases offset="20219520" size="1024"/>
			</blobs>
		</layer>
		<layer id="138" name="conv5_3_1x1_reduce/conv5_3_1x1_reduce" precision="FP32" type="ReLU">
			<input>
				<port id="0">
					<dim>1</dim>
					<dim>256</dim>
					<dim>8</dim>
					<dim>16</dim>
				</port>
			</input>
			<output>
				<port id="1">
					<dim>1</dim>
					<dim>256</dim>
					<dim>8</dim>
					<dim>16</dim>
				</port>
			</output>
		</layer>
		<layer id="139" name="conv5_3_3x3/convolution" precision="FP32" type="Convolution">
			<data dilations="4,4" group="1" kernel="3,3" output="256" pads_begin="4,4" pads_end="4,4" strides="1,1"/>
			<input>
				<port id="0">
					<dim>1</dim>
					<dim>256</dim>
					<dim>8</dim>
					<dim>16</dim>
				</port>
			</input>
			<output>
				<port id="3">
					<dim>1</dim>
					<dim>256</dim>
					<dim>8</dim>
					<dim>16</dim>
				</port>
			</output>
			<blobs>
				<weights offset="20220544" size="2359296"/>
				<biases offset="22579840" size="1024"/>
			</blobs>
		</layer>
		<layer id="140" name="conv5_3_3x3/conv5_3_3x3" precision="FP32" type="ReLU">
			<input>
				<port id="0">
					<dim>1</dim>
					<dim>256</dim>
					<dim>8</dim>
					<dim>16</dim>
				</port>
			</input>
			<output>
				<port id="1">
					<dim>1</dim>
					<dim>256</dim>
					<dim>8</dim>
					<dim>16</dim>
				</port>
			</output>
		</layer>
		<layer id="141" name="conv5_3_1x1_increase/Conv2D" precision="FP32" type="Convolution">
			<data auto_pad="valid" dilations="1,1" group="1" kernel="1,1" output="1024" pads_begin="0,0" pads_end="0,0" strides="1,1"/>
			<input>
				<port id="0">
					<dim>1</dim>
					<dim>256</dim>
					<dim>8</dim>
					<dim>16</dim>
				</port>
			</input>
			<output>
				<port id="3">
					<dim>1</dim>
					<dim>1024</dim>
					<dim>8</dim>
					<dim>16</dim>
				</port>
			</output>
			<blobs>
				<weights offset="22580864" size="1048576"/>
				<biases offset="23629440" size="4096"/>
			</blobs>
		</layer>
		<layer id="142" name="conv5_3/sum_1" precision="FP32" type="Eltwise">
			<data operation="sum"/>
			<input>
				<port id="0">
					<dim>1</dim>
					<dim>1024</dim>
					<dim>8</dim>
					<dim>16</dim>
				</port>
				<port id="1">
					<dim>1</dim>
					<dim>1024</dim>
					<dim>8</dim>
					<dim>16</dim>
				</port>
			</input>
			<output>
				<port id="2">
					<dim>1</dim>
					<dim>1024</dim>
					<dim>8</dim>
					<dim>16</dim>
				</port>
			</output>
		</layer>
		<layer id="143" name="conv5_3/relu" precision="FP32" type="ReLU">
			<input>
				<port id="0">
					<dim>1</dim>
					<dim>1024</dim>
					<dim>8</dim>
					<dim>16</dim>
				</port>
			</input>
			<output>
				<port id="1">
					<dim>1</dim>
					<dim>1024</dim>
					<dim>8</dim>
					<dim>16</dim>
				</port>
			</output>
		</layer>
		<layer id="144" name="ResizeBilinear_16" precision="FP32" type="Interp">
			<data align_corners="0" factor="1.0" pad_beg="0" pad_end="0"/>
			<input>
				<port id="0">
					<dim>1</dim>
					<dim>1024</dim>
					<dim>8</dim>
					<dim>16</dim>
				</port>
			</input>
			<output>
				<port id="1">
					<dim>1</dim>
					<dim>1024</dim>
					<dim>8</dim>
					<dim>16</dim>
				</port>
			</output>
		</layer>
		<layer id="145" name="conv5_3_pool6" precision="FP32" type="Pooling">
			<data auto_pad="valid" exclude-pad="true" kernel="1,2" pads_begin="0,0" pads_end="0,0" pool-method="avg" strides="1,2"/>
			<input>
				<port id="0">
					<dim>1</dim>
					<dim>1024</dim>
					<dim>8</dim>
					<dim>16</dim>
				</port>
			</input>
			<output>
				<port id="1">
					<dim>1</dim>
					<dim>1024</dim>
					<dim>8</dim>
					<dim>8</dim>
				</port>
			</output>
		</layer>
		<layer id="146" name="conv5_3_pool6_interp" precision="FP32" type="Interp">
			<data align_corners="1" height="8" pad_beg="0" pad_end="0" width="16"/>
			<input>
				<port id="0">
					<dim>1</dim>
					<dim>1024</dim>
					<dim>8</dim>
					<dim>8</dim>
				</port>
			</input>
			<output>
				<port id="1">
					<dim>1</dim>
					<dim>1024</dim>
					<dim>8</dim>
					<dim>16</dim>
				</port>
			</output>
		</layer>
		<layer id="147" name="conv5_3_sum/sum_1" precision="FP32" type="Eltwise">
			<data operation="sum"/>
			<input>
				<port id="0">
					<dim>1</dim>
					<dim>1024</dim>
					<dim>8</dim>
					<dim>16</dim>
				</port>
				<port id="1">
					<dim>1</dim>
					<dim>1024</dim>
					<dim>8</dim>
					<dim>16</dim>
				</port>
			</input>
			<output>
				<port id="2">
					<dim>1</dim>
					<dim>1024</dim>
					<dim>8</dim>
					<dim>16</dim>
				</port>
			</output>
		</layer>
		<layer id="148" name="conv5_3_pool3" precision="FP32" type="Pooling">
			<data auto_pad="valid" exclude-pad="true" kernel="2,5" pads_begin="0,0" pads_end="0,0" pool-method="avg" strides="2,5"/>
			<input>
				<port id="0">
					<dim>1</dim>
					<dim>1024</dim>
					<dim>8</dim>
					<dim>16</dim>
				</port>
			</input>
			<output>
				<port id="1">
					<dim>1</dim>
					<dim>1024</dim>
					<dim>4</dim>
					<dim>3</dim>
				</port>
			</output>
		</layer>
		<layer id="149" name="conv5_3_pool3_interp" precision="FP32" type="Interp">
			<data align_corners="1" height="8" pad_beg="0" pad_end="0" width="16"/>
			<input>
				<port id="0">
					<dim>1</dim>
					<dim>1024</dim>
					<dim>4</dim>
					<dim>3</dim>
				</port>
			</input>
			<output>
				<port id="1">
					<dim>1</dim>
					<dim>1024</dim>
					<dim>8</dim>
					<dim>16</dim>
				</port>
			</output>
		</layer>
		<layer id="150" name="conv5_3_sum/sum_2" precision="FP32" type="Eltwise">
			<data operation="sum"/>
			<input>
				<port id="0">
					<dim>1</dim>
					<dim>1024</dim>
					<dim>8</dim>
					<dim>16</dim>
				</port>
				<port id="1">
					<dim>1</dim>
					<dim>1024</dim>
					<dim>8</dim>
					<dim>16</dim>
				</port>
			</input>
			<output>
				<port id="2">
					<dim>1</dim>
					<dim>1024</dim>
					<dim>8</dim>
					<dim>16</dim>
				</port>
			</output>
		</layer>
		<layer id="151" name="conv5_3_pool2" precision="FP32" type="Pooling">
			<data auto_pad="valid" exclude-pad="true" kernel="4,8" pads_begin="0,0" pads_end="0,0" pool-method="avg" strides="4,8"/>
			<input>
				<port id="0">
					<dim>1</dim>
					<dim>1024</dim>
					<dim>8</dim>
					<dim>16</dim>
				</port>
			</input>
			<output>
				<port id="1">
					<dim>1</dim>
					<dim>1024</dim>
					<dim>2</dim>
					<dim>2</dim>
				</port>
			</output>
		</layer>
		<layer id="152" name="conv5_3_pool2_interp" precision="FP32" type="Interp">
			<data align_corners="1" height="8" pad_beg="0" pad_end="0" width="16"/>
			<input>
				<port id="0">
					<dim>1</dim>
					<dim>1024</dim>
					<dim>2</dim>
					<dim>2</dim>
				</port>
			</input>
			<output>
				<port id="1">
					<dim>1</dim>
					<dim>1024</dim>
					<dim>8</dim>
					<dim>16</dim>
				</port>
			</output>
		</layer>
		<layer id="153" name="conv5_3_sum/sum_3" precision="FP32" type="Eltwise">
			<data operation="sum"/>
			<input>
				<port id="0">
					<dim>1</dim>
					<dim>1024</dim>
					<dim>8</dim>
					<dim>16</dim>
				</port>
				<port id="1">
					<dim>1</dim>
					<dim>1024</dim>
					<dim>8</dim>
					<dim>16</dim>
				</port>
			</input>
			<output>
				<port id="2">
					<dim>1</dim>
					<dim>1024</dim>
					<dim>8</dim>
					<dim>16</dim>
				</port>
			</output>
		</layer>
		<layer id="154" name="conv5_3_pool1" precision="FP32" type="Pooling">
			<data auto_pad="valid" exclude-pad="true" kernel="8,16" pads_begin="0,0" pads_end="0,0" pool-method="avg" strides="8,16"/>
			<input>
				<port id="0">
					<dim>1</dim>
					<dim>1024</dim>
					<dim>8</dim>
					<dim>16</dim>
				</port>
			</input>
			<output>
				<port id="1">
					<dim>1</dim>
					<dim>1024</dim>
					<dim>1</dim>
					<dim>1</dim>
				</port>
			</output>
		</layer>
		<layer id="155" name="conv5_3_pool1_interp" precision="FP32" type="Interp">
			<data align_corners="1" height="8" pad_beg="0" pad_end="0" width="16"/>
			<input>
				<port id="0">
					<dim>1</dim>
					<dim>1024</dim>
					<dim>1</dim>
					<dim>1</dim>
				</port>
			</input>
			<output>
				<port id="1">
					<dim>1</dim>
					<dim>1024</dim>
					<dim>8</dim>
					<dim>16</dim>
				</port>
			</output>
		</layer>
		<layer id="156" name="conv5_3_sum/sum_4" precision="FP32" type="Eltwise">
			<data operation="sum"/>
			<input>
				<port id="0">
					<dim>1</dim>
					<dim>1024</dim>
					<dim>8</dim>
					<dim>16</dim>
				</port>
				<port id="1">
					<dim>1</dim>
					<dim>1024</dim>
					<dim>8</dim>
					<dim>16</dim>
				</port>
			</input>
			<output>
				<port id="2">
					<dim>1</dim>
					<dim>1024</dim>
					<dim>8</dim>
					<dim>16</dim>
				</port>
			</output>
		</layer>
		<layer id="157" name="conv5_4_k1/Conv2D" precision="FP32" type="Convolution">
			<data auto_pad="valid" dilations="1,1" group="1" kernel="1,1" output="256" pads_begin="0,0" pads_end="0,0" strides="1,1"/>
			<input>
				<port id="0">
					<dim>1</dim>
					<dim>1024</dim>
					<dim>8</dim>
					<dim>16</dim>
				</port>
			</input>
			<output>
				<port id="3">
					<dim>1</dim>
					<dim>256</dim>
					<dim>8</dim>
					<dim>16</dim>
				</port>
			</output>
			<blobs>
				<weights offset="23633536" size="1048576"/>
				<biases offset="24682112" size="1024"/>
			</blobs>
		</layer>
		<layer id="158" name="conv5_4_k1/conv5_4_k1" precision="FP32" type="ReLU">
			<input>
				<port id="0">
					<dim>1</dim>
					<dim>256</dim>
					<dim>8</dim>
					<dim>16</dim>
				</port>
			</input>
			<output>
				<port id="1">
					<dim>1</dim>
					<dim>256</dim>
					<dim>8</dim>
					<dim>16</dim>
				</port>
			</output>
		</layer>
		<layer id="159" name="conv5_4_interp" precision="FP32" type="Interp">
			<data align_corners="1" height="15" pad_beg="0" pad_end="0" width="31"/>
			<input>
				<port id="0">
					<dim>1</dim>
					<dim>256</dim>
					<dim>8</dim>
					<dim>16</dim>
				</port>
			</input>
			<output>
				<port id="1">
					<dim>1</dim>
					<dim>256</dim>
					<dim>15</dim>
					<dim>31</dim>
				</port>
			</output>
		</layer>
		<layer id="160" name="conv_sub4/convolution" precision="FP32" type="Convolution">
			<data dilations="2,2" group="1" kernel="3,3" output="128" pads_begin="2,2" pads_end="2,2" strides="1,1"/>
			<input>
				<port id="0">
					<dim>1</dim>
					<dim>256</dim>
					<dim>15</dim>
					<dim>31</dim>
				</port>
			</input>
			<output>
				<port id="3">
					<dim>1</dim>
					<dim>128</dim>
					<dim>15</dim>
					<dim>31</dim>
				</port>
			</output>
			<blobs>
				<weights offset="24683136" size="1179648"/>
				<biases offset="25862784" size="512"/>
			</blobs>
		</layer>
		<layer id="161" name="ResizeBilinear_17" precision="FP32" type="Interp">
			<data align_corners="0" height="16" pad_beg="0" pad_end="0" width="32"/>
			<input>
				<port id="0">
					<dim>1</dim>
					<dim>128</dim>
					<dim>15</dim>
					<dim>31</dim>
				</port>
			</input>
			<output>
				<port id="1">
					<dim>1</dim>
					<dim>128</dim>
					<dim>16</dim>
					<dim>32</dim>
				</port>
			</output>
		</layer>
		<layer id="162" name="conv3_1_sub2_proj/Conv2D" precision="FP32" type="Convolution">
			<data auto_pad="valid" dilations="1,1" group="1" kernel="1,1" output="128" pads_begin="0,0" pads_end="0,0" strides="1,1"/>
			<input>
				<port id="0">
					<dim>1</dim>
					<dim>256</dim>
					<dim>16</dim>
					<dim>32</dim>
				</port>
			</input>
			<output>
				<port id="3">
					<dim>1</dim>
					<dim>128</dim>
					<dim>16</dim>
					<dim>32</dim>
				</port>
			</output>
			<blobs>
				<weights offset="25863296" size="131072"/>
				<biases offset="25994368" size="512"/>
			</blobs>
		</layer>
		<layer id="163" name="sub24_sum/sum_1" precision="FP32" type="Eltwise">
			<data operation="sum"/>
			<input>
				<port id="0">
					<dim>1</dim>
					<dim>128</dim>
					<dim>16</dim>
					<dim>32</dim>
				</port>
				<port id="1">
					<dim>1</dim>
					<dim>128</dim>
					<dim>16</dim>
					<dim>32</dim>
				</port>
			</input>
			<output>
				<port id="2">
					<dim>1</dim>
					<dim>128</dim>
					<dim>16</dim>
					<dim>32</dim>
				</port>
			</output>
		</layer>
		<layer id="164" name="sub24_sum/relu" precision="FP32" type="ReLU">
			<input>
				<port id="0">
					<dim>1</dim>
					<dim>128</dim>
					<dim>16</dim>
					<dim>32</dim>
				</port>
			</input>
			<output>
				<port id="1">
					<dim>1</dim>
					<dim>128</dim>
					<dim>16</dim>
					<dim>32</dim>
				</port>
			</output>
		</layer>
		<layer id="165" name="sub24_sum_interp" precision="FP32" type="Interp">
			<data align_corners="1" height="31" pad_beg="0" pad_end="0" width="63"/>
			<input>
				<port id="0">
					<dim>1</dim>
					<dim>128</dim>
					<dim>16</dim>
					<dim>32</dim>
				</port>
			</input>
			<output>
				<port id="1">
					<dim>1</dim>
					<dim>128</dim>
					<dim>31</dim>
					<dim>63</dim>
				</port>
			</output>
		</layer>
		<layer id="166" name="conv_sub2/convolution" precision="FP32" type="Convolution">
			<data dilations="2,2" group="1" kernel="3,3" output="128" pads_begin="2,2" pads_end="2,2" strides="1,1"/>
			<input>
				<port id="0">
					<dim>1</dim>
					<dim>128</dim>
					<dim>31</dim>
					<dim>63</dim>
				</port>
			</input>
			<output>
				<port id="3">
					<dim>1</dim>
					<dim>128</dim>
					<dim>31</dim>
					<dim>63</dim>
				</port>
			</output>
			<blobs>
				<weights offset="25994880" size="589824"/>
				<biases offset="26584704" size="512"/>
			</blobs>
		</layer>
		<layer id="167" name="ResizeBilinear_18" precision="FP32" type="Interp">
			<data align_corners="0" height="32" pad_beg="0" pad_end="0" width="64"/>
			<input>
				<port id="0">
					<dim>1</dim>
					<dim>128</dim>
					<dim>31</dim>
					<dim>63</dim>
				</port>
			</input>
			<output>
				<port id="1">
					<dim>1</dim>
					<dim>128</dim>
					<dim>32</dim>
					<dim>64</dim>
				</port>
			</output>
		</layer>
		<layer id="168" name="conv1_sub1/Conv2D" precision="FP32" type="Convolution">
			<data auto_pad="same_upper" dilations="1,1" group="1" kernel="3,3" output="32" pads_begin="0,0" pads_end="1,1" strides="2,2"/>
			<input>
				<port id="0">
					<dim>1</dim>
					<dim>3</dim>
					<dim>256</dim>
					<dim>512</dim>
				</port>
			</input>
			<output>
				<port id="3">
					<dim>1</dim>
					<dim>32</dim>
					<dim>128</dim>
					<dim>256</dim>
				</port>
			</output>
			<blobs>
				<weights offset="26585216" size="3456"/>
				<biases offset="26588672" size="128"/>
			</blobs>
		</layer>
		<layer id="169" name="conv1_sub1/conv1_sub1" precision="FP32" type="ReLU">
			<input>
				<port id="0">
					<dim>1</dim>
					<dim>32</dim>
					<dim>128</dim>
					<dim>256</dim>
				</port>
			</input>
			<output>
				<port id="1">
					<dim>1</dim>
					<dim>32</dim>
					<dim>128</dim>
					<dim>256</dim>
				</port>
			</output>
		</layer>
		<layer id="170" name="conv2_sub1/Conv2D" precision="FP32" type="Convolution">
			<data auto_pad="same_upper" dilations="1,1" group="1" kernel="3,3" output="32" pads_begin="0,0" pads_end="1,1" strides="2,2"/>
			<input>
				<port id="0">
					<dim>1</dim>
					<dim>32</dim>
					<dim>128</dim>
					<dim>256</dim>
				</port>
			</input>
			<output>
				<port id="3">
					<dim>1</dim>
					<dim>32</dim>
					<dim>64</dim>
					<dim>128</dim>
				</port>
			</output>
			<blobs>
				<weights offset="26588800" size="36864"/>
				<biases offset="26625664" size="128"/>
			</blobs>
		</layer>
		<layer id="171" name="conv2_sub1/conv2_sub1" precision="FP32" type="ReLU">
			<input>
				<port id="0">
					<dim>1</dim>
					<dim>32</dim>
					<dim>64</dim>
					<dim>128</dim>
				</port>
			</input>
			<output>
				<port id="1">
					<dim>1</dim>
					<dim>32</dim>
					<dim>64</dim>
					<dim>128</dim>
				</port>
			</output>
		</layer>
		<layer id="172" name="conv3_sub1/Conv2D" precision="FP32" type="Convolution">
			<data auto_pad="same_upper" dilations="1,1" group="1" kernel="3,3" output="64" pads_begin="0,0" pads_end="1,1" strides="2,2"/>
			<input>
				<port id="0">
					<dim>1</dim>
					<dim>32</dim>
					<dim>64</dim>
					<dim>128</dim>
				</port>
			</input>
			<output>
				<port id="3">
					<dim>1</dim>
					<dim>64</dim>
					<dim>32</dim>
					<dim>64</dim>
				</port>
			</output>
			<blobs>
				<weights offset="26625792" size="73728"/>
				<biases offset="26699520" size="256"/>
			</blobs>
		</layer>
		<layer id="173" name="conv3_sub1/conv3_sub1" precision="FP32" type="ReLU">
			<input>
				<port id="0">
					<dim>1</dim>
					<dim>64</dim>
					<dim>32</dim>
					<dim>64</dim>
				</port>
			</input>
			<output>
				<port id="1">
					<dim>1</dim>
					<dim>64</dim>
					<dim>32</dim>
					<dim>64</dim>
				</port>
			</output>
		</layer>
		<layer id="174" name="conv3_sub1_proj/Conv2D" precision="FP32" type="Convolution">
			<data auto_pad="valid" dilations="1,1" group="1" kernel="1,1" output="128" pads_begin="0,0" pads_end="0,0" strides="1,1"/>
			<input>
				<port id="0">
					<dim>1</dim>
					<dim>64</dim>
					<dim>32</dim>
					<dim>64</dim>
				</port>
			</input>
			<output>
				<port id="3">
					<dim>1</dim>
					<dim>128</dim>
					<dim>32</dim>
					<dim>64</dim>
				</port>
			</output>
			<blobs>
				<weights offset="26699776" size="32768"/>
				<biases offset="26732544" size="512"/>
			</blobs>
		</layer>
		<layer id="175" name="sub12_sum/sum_1" precision="FP32" type="Eltwise">
			<data operation="sum"/>
			<input>
				<port id="0">
					<dim>1</dim>
					<dim>128</dim>
					<dim>32</dim>
					<dim>64</dim>
				</port>
				<port id="1">
					<dim>1</dim>
					<dim>128</dim>
					<dim>32</dim>
					<dim>64</dim>
				</port>
			</input>
			<output>
				<port id="2">
					<dim>1</dim>
					<dim>128</dim>
					<dim>32</dim>
					<dim>64</dim>
				</port>
			</output>
		</layer>
		<layer id="176" name="sub12_sum/relu" precision="FP32" type="ReLU">
			<input>
				<port id="0">
					<dim>1</dim>
					<dim>128</dim>
					<dim>32</dim>
					<dim>64</dim>
				</port>
			</input>
			<output>
				<port id="1">
					<dim>1</dim>
					<dim>128</dim>
					<dim>32</dim>
					<dim>64</dim>
				</port>
			</output>
		</layer>
		<layer id="177" name="sub12_sum_interp" precision="FP32" type="Interp">
			<data align_corners="1" height="63" pad_beg="0" pad_end="0" width="127"/>
			<input>
				<port id="0">
					<dim>1</dim>
					<dim>128</dim>
					<dim>32</dim>
					<dim>64</dim>
				</port>
			</input>
			<output>
				<port id="1">
					<dim>1</dim>
					<dim>128</dim>
					<dim>63</dim>
					<dim>127</dim>
				</port>
			</output>
		</layer>
		<layer id="178" name="conv6_cls/Conv2D" precision="FP32" type="Convolution">
			<data auto_pad="valid" dilations="1,1" group="1" kernel="1,1" output="19" pads_begin="0,0" pads_end="0,0" strides="1,1"/>
			<input>
				<port id="0">
					<dim>1</dim>
					<dim>128</dim>
					<dim>63</dim>
					<dim>127</dim>
				</port>
			</input>
			<output>
				<port id="3">
					<dim>1</dim>
					<dim>19</dim>
					<dim>63</dim>
					<dim>127</dim>
				</port>
			</output>
			<blobs>
				<weights offset="26733056" size="9728"/>
				<biases offset="26742784" size="76"/>
			</blobs>
		</layer>
		<layer id="179" name="ResizeBilinear_19" precision="FP32" type="Interp">
			<data align_corners="1" height="256" pad_beg="0" pad_end="0" width="512"/>
			<input>
				<port id="0">
					<dim>1</dim>
					<dim>19</dim>
					<dim>63</dim>
					<dim>127</dim>
				</port>
			</input>
			<output>
				<port id="1">
					<dim>1</dim>
					<dim>19</dim>
					<dim>256</dim>
					<dim>512</dim>
				</port>
			</output>
		</layer>
	</layers>
	<edges>
		<edge from-layer="0" from-port="0" to-layer="1" to-port="0"/>
		<edge from-layer="1" from-port="1" to-layer="2" to-port="0"/>
		<edge from-layer="2" from-port="1" to-layer="3" to-port="0"/>
		<edge from-layer="3" from-port="1" to-layer="4" to-port="0"/>
		<edge from-layer="4" from-port="3" to-layer="5" to-port="0"/>
		<edge from-layer="5" from-port="1" to-layer="6" to-port="0"/>
		<edge from-layer="6" from-port="3" to-layer="7" to-port="0"/>
		<edge from-layer="7" from-port="1" to-layer="8" to-port="0"/>
		<edge from-layer="8" from-port="3" to-layer="9" to-port="0"/>
		<edge from-layer="9" from-port="1" to-layer="10" to-port="0"/>
		<edge from-layer="10" from-port="1" to-layer="11" to-port="0"/>
		<edge from-layer="11" from-port="3" to-layer="12" to-port="0"/>
		<edge from-layer="10" from-port="1" to-layer="13" to-port="0"/>
		<edge from-layer="13" from-port="3" to-layer="14" to-port="0"/>
		<edge from-layer="14" from-port="1" to-layer="15" to-port="0"/>
		<edge from-layer="15" from-port="3" to-layer="16" to-port="0"/>
		<edge from-layer="16" from-port="1" to-layer="17" to-port="0"/>
		<edge from-layer="12" from-port="1" to-layer="18" to-port="0"/>
		<edge from-layer="17" from-port="3" to-layer="18" to-port="1"/>
		<edge from-layer="18" from-port="2" to-layer="19" to-port="0"/>
		<edge from-layer="19" from-port="1" to-layer="20" to-port="0"/>
		<edge from-layer="19" from-port="1" to-layer="21" to-port="0"/>
		<edge from-layer="21" from-port="3" to-layer="22" to-port="0"/>
		<edge from-layer="22" from-port="1" to-layer="23" to-port="0"/>
		<edge from-layer="23" from-port="3" to-layer="24" to-port="0"/>
		<edge from-layer="24" from-port="1" to-layer="25" to-port="0"/>
		<edge from-layer="20" from-port="1" to-layer="26" to-port="0"/>
		<edge from-layer="25" from-port="3" to-layer="26" to-port="1"/>
		<edge from-layer="26" from-port="2" to-layer="27" to-port="0"/>
		<edge from-layer="27" from-port="1" to-layer="28" to-port="0"/>
		<edge from-layer="27" from-port="1" to-layer="29" to-port="0"/>
		<edge from-layer="29" from-port="3" to-layer="30" to-port="0"/>
		<edge from-layer="30" from-port="1" to-layer="31" to-port="0"/>
		<edge from-layer="31" from-port="3" to-layer="32" to-port="0"/>
		<edge from-layer="32" from-port="1" to-layer="33" to-port="0"/>
		<edge from-layer="28" from-port="1" to-layer="34" to-port="0"/>
		<edge from-layer="33" from-port="3" to-layer="34" to-port="1"/>
		<edge from-layer="34" from-port="2" to-layer="35" to-port="0"/>
		<edge from-layer="35" from-port="1" to-layer="36" to-port="0"/>
		<edge from-layer="36" from-port="3" to-layer="37" to-port="0"/>
		<edge from-layer="35" from-port="1" to-layer="38" to-port="0"/>
		<edge from-layer="38" from-port="3" to-layer="39" to-port="0"/>
		<edge from-layer="39" from-port="1" to-layer="40" to-port="0"/>
		<edge from-layer="40" from-port="3" to-layer="41" to-port="0"/>
		<edge from-layer="41" from-port="1" to-layer="42" to-port="0"/>
		<edge from-layer="37" from-port="1" to-layer="43" to-port="0"/>
		<edge from-layer="42" from-port="3" to-layer="43" to-port="1"/>
		<edge from-layer="43" from-port="2" to-layer="44" to-port="0"/>
		<edge from-layer="44" from-port="1" to-layer="45" to-port="0"/>
		<edge from-layer="45" from-port="1" to-layer="46" to-port="0"/>
		<edge from-layer="45" from-port="1" to-layer="47" to-port="0"/>
		<edge from-layer="47" from-port="3" to-layer="48" to-port="0"/>
		<edge from-layer="48" from-port="1" to-layer="49" to-port="0"/>
		<edge from-layer="49" from-port="3" to-layer="50" to-port="0"/>
		<edge from-layer="50" from-port="1" to-layer="51" to-port="0"/>
		<edge from-layer="46" from-port="1" to-layer="52" to-port="0"/>
		<edge from-layer="51" from-port="3" to-layer="52" to-port="1"/>
		<edge from-layer="52" from-port="2" to-layer="53" to-port="0"/>
		<edge from-layer="53" from-port="1" to-layer="54" to-port="0"/>
		<edge from-layer="53" from-port="1" to-layer="55" to-port="0"/>
		<edge from-layer="55" from-port="3" to-layer="56" to-port="0"/>
		<edge from-layer="56" from-port="1" to-layer="57" to-port="0"/>
		<edge from-layer="57" from-port="3" to-layer="58" to-port="0"/>
		<edge from-layer="58" from-port="1" to-layer="59" to-port="0"/>
		<edge from-layer="54" from-port="1" to-layer="60" to-port="0"/>
		<edge from-layer="59" from-port="3" to-layer="60" to-port="1"/>
		<edge from-layer="60" from-port="2" to-layer="61" to-port="0"/>
		<edge from-layer="61" from-port="1" to-layer="62" to-port="0"/>
		<edge from-layer="61" from-port="1" to-layer="63" to-port="0"/>
		<edge from-layer="63" from-port="3" to-layer="64" to-port="0"/>
		<edge from-layer="64" from-port="1" to-layer="65" to-port="0"/>
		<edge from-layer="65" from-port="3" to-layer="66" to-port="0"/>
		<edge from-layer="66" from-port="1" to-layer="67" to-port="0"/>
		<edge from-layer="62" from-port="1" to-layer="68" to-port="0"/>
		<edge from-layer="67" from-port="3" to-layer="68" to-port="1"/>
		<edge from-layer="68" from-port="2" to-layer="69" to-port="0"/>
		<edge from-layer="69" from-port="1" to-layer="70" to-port="0"/>
		<edge from-layer="70" from-port="3" to-layer="71" to-port="0"/>
		<edge from-layer="69" from-port="1" to-layer="72" to-port="0"/>
		<edge from-layer="72" from-port="3" to-layer="73" to-port="0"/>
		<edge from-layer="73" from-port="1" to-layer="74" to-port="0"/>
		<edge from-layer="74" from-port="3" to-layer="75" to-port="0"/>
		<edge from-layer="75" from-port="1" to-layer="76" to-port="0"/>
		<edge from-layer="71" from-port="1" to-layer="77" to-port="0"/>
		<edge from-layer="76" from-port="3" to-layer="77" to-port="1"/>
		<edge from-layer="77" from-port="2" to-layer="78" to-port="0"/>
		<edge from-layer="78" from-port="1" to-layer="79" to-port="0"/>
		<edge from-layer="78" from-port="1" to-layer="80" to-port="0"/>
		<edge from-layer="80" from-port="3" to-layer="81" to-port="0"/>
		<edge from-layer="81" from-port="1" to-layer="82" to-port="0"/>
		<edge from-layer="82" from-port="3" to-layer="83" to-port="0"/>
		<edge from-layer="83" from-port="1" to-layer="84" to-port="0"/>
		<edge from-layer="79" from-port="1" to-layer="85" to-port="0"/>
		<edge from-layer="84" from-port="3" to-layer="85" to-port="1"/>
		<edge from-layer="85" from-port="2" to-layer="86" to-port="0"/>
		<edge from-layer="86" from-port="1" to-layer="87" to-port="0"/>
		<edge from-layer="86" from-port="1" to-layer="88" to-port="0"/>
		<edge from-layer="88" from-port="3" to-layer="89" to-port="0"/>
		<edge from-layer="89" from-port="1" to-layer="90" to-port="0"/>
		<edge from-layer="90" from-port="3" to-layer="91" to-port="0"/>
		<edge from-layer="91" from-port="1" to-layer="92" to-port="0"/>
		<edge from-layer="87" from-port="1" to-layer="93" to-port="0"/>
		<edge from-layer="92" from-port="3" to-layer="93" to-port="1"/>
		<edge from-layer="93" from-port="2" to-layer="94" to-port="0"/>
		<edge from-layer="94" from-port="1" to-layer="95" to-port="0"/>
		<edge from-layer="94" from-port="1" to-layer="96" to-port="0"/>
		<edge from-layer="96" from-port="3" to-layer="97" to-port="0"/>
		<edge from-layer="97" from-port="1" to-layer="98" to-port="0"/>
		<edge from-layer="98" from-port="3" to-layer="99" to-port="0"/>
		<edge from-layer="99" from-port="1" to-layer="100" to-port="0"/>
		<edge from-layer="95" from-port="1" to-layer="101" to-port="0"/>
		<edge from-layer="100" from-port="3" to-layer="101" to-port="1"/>
		<edge from-layer="101" from-port="2" to-layer="102" to-port="0"/>
		<edge from-layer="102" from-port="1" to-layer="103" to-port="0"/>
		<edge from-layer="102" from-port="1" to-layer="104" to-port="0"/>
		<edge from-layer="104" from-port="3" to-layer="105" to-port="0"/>
		<edge from-layer="105" from-port="1" to-layer="106" to-port="0"/>
		<edge from-layer="106" from-port="3" to-layer="107" to-port="0"/>
		<edge from-layer="107" from-port="1" to-layer="108" to-port="0"/>
		<edge from-layer="103" from-port="1" to-layer="109" to-port="0"/>
		<edge from-layer="108" from-port="3" to-layer="109" to-port="1"/>
		<edge from-layer="109" from-port="2" to-layer="110" to-port="0"/>
		<edge from-layer="110" from-port="1" to-layer="111" to-port="0"/>
		<edge from-layer="110" from-port="1" to-layer="112" to-port="0"/>
		<edge from-layer="112" from-port="3" to-layer="113" to-port="0"/>
		<edge from-layer="113" from-port="1" to-layer="114" to-port="0"/>
		<edge from-layer="114" from-port="3" to-layer="115" to-port="0"/>
		<edge from-layer="115" from-port="1" to-layer="116" to-port="0"/>
		<edge from-layer="111" from-port="1" to-layer="117" to-port="0"/>
		<edge from-layer="116" from-port="3" to-layer="117" to-port="1"/>
		<edge from-layer="117" from-port="2" to-layer="118" to-port="0"/>
		<edge from-layer="118" from-port="1" to-layer="119" to-port="0"/>
		<edge from-layer="119" from-port="3" to-layer="120" to-port="0"/>
		<edge from-layer="118" from-port="1" to-layer="121" to-port="0"/>
		<edge from-layer="121" from-port="3" to-layer="122" to-port="0"/>
		<edge from-layer="122" from-port="1" to-layer="123" to-port="0"/>
		<edge from-layer="123" from-port="3" to-layer="124" to-port="0"/>
		<edge from-layer="124" from-port="1" to-layer="125" to-port="0"/>
		<edge from-layer="120" from-port="1" to-layer="126" to-port="0"/>
		<edge from-layer="125" from-port="3" to-layer="126" to-port="1"/>
		<edge from-layer="126" from-port="2" to-layer="127" to-port="0"/>
		<edge from-layer="127" from-port="1" to-layer="128" to-port="0"/>
		<edge from-layer="127" from-port="1" to-layer="129" to-port="0"/>
		<edge from-layer="129" from-port="3" to-layer="130" to-port="0"/>
		<edge from-layer="130" from-port="1" to-layer="131" to-port="0"/>
		<edge from-layer="131" from-port="3" to-layer="132" to-port="0"/>
		<edge from-layer="132" from-port="1" to-layer="133" to-port="0"/>
		<edge from-layer="128" from-port="1" to-layer="134" to-port="0"/>
		<edge from-layer="133" from-port="3" to-layer="134" to-port="1"/>
		<edge from-layer="134" from-port="2" to-layer="135" to-port="0"/>
		<edge from-layer="135" from-port="1" to-layer="136" to-port="0"/>
		<edge from-layer="135" from-port="1" to-layer="137" to-port="0"/>
		<edge from-layer="137" from-port="3" to-layer="138" to-port="0"/>
		<edge from-layer="138" from-port="1" to-layer="139" to-port="0"/>
		<edge from-layer="139" from-port="3" to-layer="140" to-port="0"/>
		<edge from-layer="140" from-port="1" to-layer="141" to-port="0"/>
		<edge from-layer="136" from-port="1" to-layer="142" to-port="0"/>
		<edge from-layer="141" from-port="3" to-layer="142" to-port="1"/>
		<edge from-layer="142" from-port="2" to-layer="143" to-port="0"/>
		<edge from-layer="143" from-port="1" to-layer="144" to-port="0"/>
		<edge from-layer="143" from-port="1" to-layer="145" to-port="0"/>
		<edge from-layer="145" from-port="1" to-layer="146" to-port="0"/>
		<edge from-layer="144" from-port="1" to-layer="147" to-port="0"/>
		<edge from-layer="146" from-port="1" to-layer="147" to-port="1"/>
		<edge from-layer="143" from-port="1" to-layer="148" to-port="0"/>
		<edge from-layer="148" from-port="1" to-layer="149" to-port="0"/>
		<edge from-layer="147" from-port="2" to-layer="150" to-port="0"/>
		<edge from-layer="149" from-port="1" to-layer="150" to-port="1"/>
		<edge from-layer="143" from-port="1" to-layer="151" to-port="0"/>
		<edge from-layer="151" from-port="1" to-layer="152" to-port="0"/>
		<edge from-layer="150" from-port="2" to-layer="153" to-port="0"/>
		<edge from-layer="152" from-port="1" to-layer="153" to-port="1"/>
		<edge from-layer="143" from-port="1" to-layer="154" to-port="0"/>
		<edge from-layer="154" from-port="1" to-layer="155" to-port="0"/>
		<edge from-layer="153" from-port="2" to-layer="156" to-port="0"/>
		<edge from-layer="155" from-port="1" to-layer="156" to-port="1"/>
		<edge from-layer="156" from-port="2" to-layer="157" to-port="0"/>
		<edge from-layer="157" from-port="3" to-layer="158" to-port="0"/>
		<edge from-layer="158" from-port="1" to-layer="159" to-port="0"/>
		<edge from-layer="159" from-port="1" to-layer="160" to-port="0"/>
		<edge from-layer="160" from-port="3" to-layer="161" to-port="0"/>
		<edge from-layer="44" from-port="1" to-layer="162" to-port="0"/>
		<edge from-layer="161" from-port="1" to-layer="163" to-port="0"/>
		<edge from-layer="162" from-port="3" to-layer="163" to-port="1"/>
		<edge from-layer="163" from-port="2" to-layer="164" to-port="0"/>
		<edge from-layer="164" from-port="1" to-layer="165" to-port="0"/>
		<edge from-layer="165" from-port="1" to-layer="166" to-port="0"/>
		<edge from-layer="166" from-port="3" to-layer="167" to-port="0"/>
		<edge from-layer="2" from-port="1" to-layer="168" to-port="0"/>
		<edge from-layer="168" from-port="3" to-layer="169" to-port="0"/>
		<edge from-layer="169" from-port="1" to-layer="170" to-port="0"/>
		<edge from-layer="170" from-port="3" to-layer="171" to-port="0"/>
		<edge from-layer="171" from-port="1" to-layer="172" to-port="0"/>
		<edge from-layer="172" from-port="3" to-layer="173" to-port="0"/>
		<edge from-layer="173" from-port="1" to-layer="174" to-port="0"/>
		<edge from-layer="167" from-port="1" to-layer="175" to-port="0"/>
		<edge from-layer="174" from-port="3" to-layer="175" to-port="1"/>
		<edge from-layer="175" from-port="2" to-layer="176" to-port="0"/>
		<edge from-layer="176" from-port="1" to-layer="177" to-port="0"/>
		<edge from-layer="177" from-port="1" to-layer="178" to-port="0"/>
		<edge from-layer="178" from-port="3" to-layer="179" to-port="0"/>
	</edges>
	<meta_data>
		<MO_version value="1.4.292.6ef7232d"/>
		<cli_parameters>
			<data_type value="FP32"/>
			<disable_fusing value="False"/>
			<disable_gfusing value="False"/>
			<disable_nhwc_to_nchw value="False"/>
			<disable_resnet_optimization value="False"/>
			<extensions value="DIR"/>
			<framework value="tf"/>
			<generate_deprecated_IR_V2 value="False"/>
			<input value="input"/>
			<input_model value="DIR/semanticsegmentation_ICNet.pb"/>
			<input_model_is_text value="False"/>
			<log_level value="ERROR"/>
			<mean_values value="()"/>
			<move_to_preprocess value="False"/>
			<offload_unsupported_operations_to_tf value="False"/>
			<output value="ResizeBilinear_19"/>
			<output_dir value="DIR"/>
			<reverse_input_channels value="False"/>
			<scale_values value="()"/>
			<silent value="False"/>
			<version value="False"/>
			<unset unset_cli_parameters="batch, finegrain_fusing, freeze_placeholder_with_value, input_checkpoint, input_meta_graph, input_shape, model_name, saved_model_dir, saved_model_tags, scale, tensorboard_logdir, tensorflow_custom_layer_libraries, tensorflow_custom_operations_config_update, tensorflow_object_detection_api_pipeline_config, tensorflow_operation_patterns, tensorflow_subgraph_patterns, tensorflow_use_custom_operations_config"/>
		</cli_parameters>
	</meta_data>
</net>
